data.pth (torch, 6826 bytes, 6 tensors)

l1.weight f4 [8, 78]
000000 f9 25 ab 3e df 4c 19 3e 6e f0 e2 3e 8e ae 69 3f
       0.33427408 0.1497073 0.44324058 0.91281974
000010 ed d9 01 3f 2f c2 aa be b5 f9 d4 3d 1d d3 d7 3e
       0.50723153 -0.33351275 0.1039919 0.42153254
000020 11 db bb be d4 5e ad bc 7a 5d 6d 3e 1e d7 ba 3e
       -0.36690572 -0.021163382 0.2318019 0.36492246
000030 df 6b cb be 0b fc 96 3e 12 c1 ea 3d d7 1b 5b 3f
       -0.39730737 0.2948917 0.114626065 0.85589355
000040 81 3e bd 3c 6f 6b b4 3d 4c e8 d6 3c 1a 77 7e 3e
       0.023101093 0.08809554 0.026233815 0.24850121
000050 7d f3 33 3e 1f b8 60 bf 3a 05 64 be a1 fe 8c bd
       0.17573352 -0.87780946 -0.22267619 -0.06884504
000060 47 07 e4 3b 6c c9 d2 be 41 04 2c be a8 f9 48 3c
       0.0069588753 -0.41169298 -0.16798498 0.012266554
000070 25 50 46 be 8e d9 09 3f 5d ee 8e 3e bc 2b 36 3f
       -0.1936651 0.5384759 0.27916232 0.71160483
000080 ec 42 aa 3e b8 23 83 3e 0c 7a 84 3f e3 42 13 be
       0.33254182 0.2561319 1.0349746 -0.14380984
000090 52 6f d1 be 65 8d 48 3e 2e e6 ba 3e 18 d3 c9 be
       -0.40905243 0.19585188 0.36503738 -0.39418864
0000a0 36 77 06 be f1 ee c4 3c de 93 87 3c 81 48 69 be
       -0.13131413 0.024039717 0.01655 -0.22781564
0000b0 42 fd cf 3e 2d 51 99 3e 34 32 a0 3d 7d 21 08 be
       0.40622908 0.29944745 0.078220755 -0.13294025
0000c0 c2 a8 15 bf 18 58 e6 3e 4e 06 50 be 75 c7 50 3d
       -0.5846063 0.44989085 -0.20314905 0.050971467
0000d0 90 8c d8 be 97 28 9f 3e 8c 4e 23 be de d1 0e 3d
       -0.4229474 0.31085655 -0.15947932 0.034868114
0000e0 56 b6 f8 be 2b 4b e6 bd 0d 9e 18 3f c3 8f 01 3e
       -0.4857661 -0.11244806 0.59616166 0.12652497
0000f0 c3 90 82 3d ac 72 f5 3e 47 48 66 bf 60 92 04 bd
       0.06375267 0.4793905 -0.89954036 -0.032366157
000100 77 d6 2f be 66 3d 1e be 08 e4 0b 3f 06 8f c4 3e
       -0.17171656 -0.15453109 0.54644823 0.38390368
000110 94 ab e8 bb 63 be 72 3e 22 91 05 bf 44 81 ba 3e
       -0.007100532 0.2370544 -0.5217458 0.36426747
000120 e4 7b ed 3e 22 5d 14 be 7a 21 cc 3c 34 a5 68 3d
       0.46383584 -0.14488652 0.024918307 0.056798175
000130 e7 f2 51 3e c4 23 37 3f 5e cc 3b bf 26 12 7a be
       0.20502816 0.7153895 -0.73358715 -0.24420986
000140 37 ef 92 be 03 e6 9d bf 91 68 77 bc 7b a9 1c be
       -0.2869813 -1.2335819 -0.015100614 -0.15299027
000150 d4 0a 4c bd 9c ff 26 bf 99 85 53 be 4a 18 4b 3d
       -0.049815014 -0.6523378 -0.20656432 0.04958371
000160 5f 1d 13 be f0 c3 47 3f 9b 36 50 3e 2d 02 d0 be
       -0.14366673 0.7803335 0.2033333 -0.4062666
000170 de 00 28 be 00 64 cc be dc d1 1e 3f 67 f6 02 bf
       -0.16406581 -0.39920044 0.6203897 -0.5115723
000180 94 e2 0c 3f fa 62 59 be 20 7b c4 be be 15 75 bf
       0.5503323 -0.21229163 -0.38375187 -0.957363
000190 17 99 af 3e 57 50 c7 be 24 d0 b5 bd c4 67 9c 3c
       0.34296486 -0.38928482 -0.0887759 0.019092448
0001a0 8c b0 98 3d a5 65 a0 3d f9 5c 63 bd 41 cb 71 bf
       0.07455549 0.07831887 -0.055508588 -0.94450766
0001b0 4b 6b 3c 3e 4b 26 84 bf 58 7f 3d be 77 42 b5 3e
       0.18400304 -1.0324186 -0.18505609 0.3540227
0001c0 87 2f 4d 3f 14 4c 95 be 41 4e 1d bd 4d ee c8 bd
       0.80150646 -0.29159606 -0.038404707 -0.09811077
0001d0 f3 61 0a be 59 60 0b be 05 14 6c 3e f1 51 46 3f
       -0.13513927 -0.13610972 0.23054512 0.7746878
0001e0 c3 1c 3a 3f d9 4f e9 bd bf c5 31 3c d6 39 ae 3d
       0.72700137 -0.11392183 0.010850369 0.08507125
0001f0 b0 8b 8e 3e 99 03 f3 bd 7e bc 82 be 52 66 3d 3e
       0.27840948 -0.118659206 -0.25534433 0.18496063
000200 8f 7d 54 3e 1c db 30 3e b2 28 88 be 59 d6 ff bd
       0.20751022 0.17271084 -0.26593548 -0.124920554
000210 14 a9 66 bd f1 da 8c 3f e5 0a 95 be e1 69 98 3d
       -0.05631359 1.1004316 -0.29109874 0.0744207
000220 6e 93 e2 be 92 17 6a 3f 95 bc 44 3f 89 3f 84 be
       -0.44253105 0.91442215 0.76850253 -0.25829723
000230 5a 53 6e bf 9d 88 89 bd 28 f3 99 bd 0c b6 5d 39
       -0.93095934 -0.0671551 -0.075170815 0.0002114402
000240 4f 71 86 bf 9c 6e 0a bf ff b1 12 bf af 35 8b 3c
       -1.0503329 -0.54075027 -0.5730285 0.016993372
000250 35 fd a5 3e 83 66 a0 3d e5 3a c6 be c2 fb 32 bd
       0.32419744 0.078320526 -0.38716808 -0.043697126
000260 54 92 f7 3e d8 eb 06 be 91 09 40 be 99 26 fa bd
       0.48353827 -0.13175905 -0.1875365 -0.12214393
000270 22 db 51 be 23 06 b2 3e 50 17 3d bd 67 c7 bb 3c
       -0.20493749 0.34770307 -0.04616481 0.02292223
000280 b1 0b 9d 3e 0f 6f c9 3e 40 f3 a1 3d 50 f6 59 3f
       0.30672982 0.39342543 0.079077244 0.8514147
000290 ce 94 b0 3e 49 5d e1 bd 35 ca 9d 3e 0f 26 1b 3f
       0.3448853 -0.11004121 0.30818334 0.6060495
0002a0 e6 ef 1e 3f 54 23 bd 3e 49 d0 20 3e 1f d8 61 bf
       0.62084806 0.36941016 0.15704454 -0.882204
0002b0 b4 73 b0 bb bc 4c 06 3f 2b 07 27 3e 49 54 16 3d
       -0.0053848866 0.5246084 0.16311328 0.036701474
0002c0 d8 58 2c 3e 23 2e 6c 3f ea 96 e2 bd 0d a4 d5 3e
       0.16830766 0.922579 -0.11063941 0.41726723
0002d0 a1 83 0e bd 1b 98 85 3e b1 b1 5e 3e b9 63 d5 3d
       -0.0347935 0.2609261 0.21747471 0.10419411
0002e0 c2 1d ad 3e 9f 79 a3 3f 97 50 b7 3e 1c 8b 9f 3f
       0.33811766 1.2771491 0.35803673 1.2464328
0002f0 93 54 19 3e 32 44 c0 3e e6 4d ba bf 50 cc 2c 3f
       0.14973669 0.3755203 -1.4555023 0.67499256
000300 98 5b 09 3f 60 c9 9b 3e 00 66 72 3e 9e fb 0d 3f
       0.53655386 0.30427074 0.23671722 0.5546206
000310 1f 1b 5a be 1b 50 9c 3e 1a 69 6e 3e 28 c7 28 3f
       -0.21299408 0.30529866 0.2328228 0.6592889
000320 68 5e 66 be e1 2a 46 be 9c f0 3d 3f 15 3e ab 3e
       -0.2249695 -0.19352295 0.74195266 0.33445802
000330 42 35 06 3f 02 e1 24 3e fe 50 1c 3f bc 8b d3 3e
       0.52425015 0.16101459 0.61061084 0.41317546
000340 d2 0a 08 3f 23 f4 d1 3e c6 88 a0 3e 86 cc d3 bd
       0.5314151 0.41006574 0.3135435 -0.10341744
000350 35 bb b5 3e fe 7e 54 3d 08 22 c3 3e ee 54 be bd
       0.3549439 0.05187892 0.381119 -0.09293543
000360 fb ae cc 3e 98 3c a3 3e 36 c5 47 3f 70 c2 f8 3b
       0.3997725 0.31882167 0.78035295 0.007591538
000370 0f 43 70 3e 09 a8 a3 3e a0 3a 1d bf 2c 6d 98 bd
       0.23463081 0.31964138 -0.6141758 -0.07442698
000380 a2 28 0b 3f db 83 02 3f 7f 39 d1 3e 9a 9d b4 be
       0.54358876 0.50982445 0.4086418 -0.3527649
000390 d2 d9 8d 3e 1a 96 a1 3e c5 3c 22 be 61 15 ff bc
       0.27705246 0.3155983 -0.15843494 -0.031138124
0003a0 af 22 e0 3e 05 41 16 3f 27 05 d2 be 22 14 99 3e
       0.4377646 0.5869296 -0.41019556 0.29898173
0003b0 76 ef 2c 3f 9e 6a c6 bd 3e 44 07 3d fc 4f 85 3e
       0.6755289 -0.09688304 0.033024065 0.26037586
0003c0 39 43 3b 3f 06 33 0f bf 10 d9 65 3f 20 c3 56 3b
       0.7314945 -0.5593723 0.89784336 0.0032770112
0003d0 4d 0f ea bb 7d 9a 60 3f f6 44 1a be f4 13 b3 3e
       -0.0071429373 0.8773573 -0.15065369 0.3497616
0003e0 f0 e4 d6 ba 38 43 77 bf 74 f7 a9 3d 5a 30 a4 3e
       -0.0016395133 -0.9658694 0.08299151 0.3206814
0003f0 d4 66 09 3f c5 6f 0b 3f f4 c3 68 3e 56 0d d3 3d
       0.5367253 0.5446742 0.22731 0.10305278

l1.bias f4 [8]
000000 dd f5 7a 3f 18 8c 8b 3f c2 35 20 3f a4 ed 30 3f
       0.9803141 1.0902128 0.6258203 0.6911261
000010 31 a8 9f 3e dd ba 18 3f c9 eb a3 3f c0 ce 29 3f
       0.31183007 0.5966013 1.2806331 0.663311

l2.weight f4 [8, 8]
000000 dc 4d 92 3e d7 0c b6 be 04 e6 aa be 92 a6 80 3e
       0.28575027 -0.3555667 -0.33378613 0.25127083
000010 30 b8 4e 3e ad 54 8b be f6 68 35 be a4 01 2e be
       0.2018745 -0.2721304 -0.1771582 -0.16992813
000020 8b 66 25 bf 0a 9c ba bf d9 11 bb 3f 38 ff 4f 3f
       -0.64609593 -1.4578869 1.4614822 0.8124881
000030 0c ce 04 3f b1 3d 84 3f 8a e2 54 3e ea 49 c1 3c
       0.518769 1.0331327 0.20789543 0.023594815
000040 85 51 c6 3f 71 7a bc 3e c0 67 0d bf 54 73 37 bf
       1.5493628 0.36812165 -0.55236435 -0.7166035
000050 29 76 8b 3e 90 8c 19 3f 28 80 56 3f 63 9e ff 3d
       0.27238587 0.59980106 0.837893 0.12481382
000060 90 a5 c0 3f ce 66 b6 bf dc e3 b8 3e 0a 37 61 bf
       1.5050526 -1.4250124 0.36111343 -0.8797461
000070 8d 77 74 be 91 ca 3d 3e 39 3a 63 3f 0e 8c 98 3f
       -0.2387373 0.18534304 0.88760716 1.1917741
000080 af 5f 0f 3f 6e 2a 93 3f 60 67 af 3f ef 97 07 3f
       0.56005377 1.1497324 1.3703423 0.5296621
000090 88 6a 4f be c7 e3 9a bf 60 a6 e1 3f 44 88 ad 3f
       -0.20255482 -1.2100762 1.7628899 1.355721
0000a0 ff 69 b1 3e 8b 72 f8 be 2e c7 bd be c1 87 87 3f
       0.3465118 -0.4852489 -0.37066025 1.0588304
0000b0 4d 45 15 bc 5b 4e a9 bf 16 63 29 3f 3e f1 31 3f
       -0.009110761 -1.3227037 0.6616682 0.6950873
0000c0 88 c4 3b be 83 45 f6 3e 92 75 66 3f 88 9a 8f bf
       -0.1833669 0.48099908 0.9002315 -1.1219034
0000d0 b5 c0 c0 3f 8d 67 77 3e 3e 94 37 bf 5f 1a 6f 3f
       1.505881 0.24160595 -0.71710575 0.93399614
0000e0 f2 75 5f 3f 01 97 91 3f 32 39 95 3e 0e b1 c8 3f
       0.87289345 1.1374208 0.291452 1.5679033
0000f0 36 25 99 be bd 22 af 3f 6a 14 ac bd a8 67 72 bf
       -0.29911202 1.3682476 -0.08402331 -0.94689417

l2.bias f4 [8]
000000 17 c6 91 be d6 de 9f be a5 6b a1 3e 06 a8 ca 3e
       -0.28471443 -0.31224698 0.3152744 0.39581317
000010 a6 e2 4b 3f e1 f8 96 be 4b ae 3c 3e 30 16 55 3f
       0.79642713 -0.29486755 0.18425862 0.8323698

l3.weight f4 [13, 8]
000000 76 0a 34 be 60 32 1e 3e 46 17 7b be f8 c2 04 3f
       -0.17582116 0.15448904 -0.24520597 0.5186
000010 67 3b 9b bf f8 a6 65 bf 15 ef b1 bf fd 56 24 3e
       -1.2127503 -0.897079 -1.3901087 0.16048808
000020 a1 01 66 be 4b 40 b1 be be b1 13 3f 58 75 aa 3e
       -0.22461559 -0.34619364 0.5769309 0.3329265
000030 15 9a 72 bf 46 93 87 bf 18 53 df 3e 5d cd 29 bf
       -0.9476636 -1.0591819 0.43618083 -0.66328984
000040 ef 3f 83 be ed 82 09 be 95 19 2a bf fb 61 b6 3d
       -0.25634715 -0.1342885 -0.66445285 0.08905407
000050 a7 1b 10 3e 11 f8 5d 3f d2 67 96 3c 3d f8 a8 bf
       0.14073049 0.86706644 0.018360052 -1.3200756
000060 8f a6 13 3e e1 4f fe 3e 58 af a3 bf d1 fa 3c 3d
       0.14419006 0.49670318 -1.2787886 0.046137635
000070 8b b5 cd bd 3f 40 45 bf 08 36 ca 3e f1 9f dc bf
       -0.10044392 -0.77051157 0.39494348 -1.723631
000080 14 e0 84 be 39 53 bd bf cb 7c 13 3f 07 3e 6d bf
       -0.25952208 -1.4791023 0.57612294 -0.9267277
000090 7a 7e a7 bf f7 a3 02 bf fc ce f3 be 4d d8 e2 3e
       -1.3085473 -0.5103144 -0.47618854 0.4430565
0000a0 7c c1 c8 bd 2a 02 d1 3e 7f 33 7c bf 50 e2 19 bf
       -0.09802529 0.40821964 -0.98516077 -0.6011095
0000b0 b9 51 c5 bf 21 01 02 bf 0b 1e 2d 3f 79 6e be be
       -1.5415565 -0.5078297 0.67623967 -0.3719366
0000c0 0e 27 f2 3d a2 11 bc bf 86 e7 75 3e 91 b1 9b bf
       0.11823855 -1.4692881 0.240141 -1.2163564
0000d0 47 a7 0b 3e 6d f0 94 bf 6c ac 4d 3f 51 73 3f bf
       0.1363803 -1.1635872 0.8034122 -0.74785334
0000e0 a3 52 5e be 98 6e 19 c0 92 a2 dc 3d 7a d3 90 bd
       -0.21711211 -2.397375 0.10773195 -0.07071586
0000f0 90 ff 51 3f bc b9 5a bf 26 4d 6a bf e6 c6 97 bd
       0.8203058 -0.8543966 -0.9152397 -0.07410984
000100 05 fe 74 3e c7 20 d3 be 40 1a ca 3e f6 29 45 3f
       0.23925026 -0.41235945 0.39473152 0.7701715
000110 ea ec 5c 3e b2 b4 d4 bf 97 85 e9 be 94 a0 7a bf
       0.2157475 -1.6617644 -0.45609733 -0.9790127
000120 75 ce e0 3d d9 5b 39 be 98 18 fc be 20 98 aa bf
       0.109768786 -0.18101443 -0.49237514 -1.3327675
000130 fd 40 9b bd 9f 17 0d c0 75 bb 58 bf 0a a3 db 3e
       -0.07580755 -2.2045667 -0.84661037 0.42897826
000140 cb a5 5b be 1b c3 51 3f b1 b3 02 c0 e1 69 7c bf
       -0.21449964 0.8193833 -2.0422175 -0.9859906
000150 1f ed 36 bf b4 76 9a be c0 30 10 bf d6 19 28 3d
       -0.7145557 -0.30168688 -0.56324387 0.041040264
000160 63 ed 26 be b8 70 d3 bf 32 33 84 3d 27 aa 4c 3f
       -0.16301493 -1.6518774 0.06455077 0.7994713
000170 e6 20 f4 3e 41 69 90 3f f5 c5 da bf ce 71 c6 bf
       0.4768135 1.1282121 -1.7091662 -1.550348
000180 ec 45 64 3e 10 69 a2 be 63 8c c1 bf 7c 4c 37 bf
       0.22292298 -0.3172078 -1.5120968 -0.7160108
000190 6c d8 e8 3e ce 4d 9f bf d1 ba 92 3e 41 83 68 be
       0.45477617 -1.2445619 0.28658155 -0.2270632

l3.bias f4 [13]
000000 f2 74 f0 be 13 4c cb be b3 89 f4 be 69 84 e1 bd
       -0.46964222 -0.39706478 -0.47761306 -0.11011583
000010 71 bd 86 bd bf c3 51 be 53 47 2c be c8 ef 51 3e
       -0.06579102 -0.20484827 -0.16824083 0.20501626
000020 df 90 d9 be 9c 2b b4 3d d3 e9 b5 3d c6 52 30 be
       -0.4249334 0.0879738 0.08882489 -0.17219076
000030 06 94 8b 3e
       0.2726137
