data.pth (torch, 6890 bytes, 6 tensors)

l1.weight f4 [8, 81]
000000 19 de 2a 3e 15 07 0e be 41 5c ca 3d 69 99 16 bf
       0.16686286 -0.13869889 0.09880877 -0.58827835
000010 26 ca 35 bf 09 bd 35 3e 8c d0 07 bf ce 9f 87 be
       -0.7101158 0.17747892 -0.5305259 -0.2648911
000020 ca ee d8 be a5 2d 1f 3e bb 35 b0 3d b6 6b c9 be
       -0.42369682 0.15544756 0.08603998 -0.3933999
000030 aa 00 41 3e 4f f5 d0 bd 0e 38 00 bc 73 f1 22 3f
       0.1884791 -0.10203039 -0.0078258645 0.6364967
000040 a0 7d 26 3f 9e ac b1 be 5f 74 d8 bd 86 00 22 3f
       0.6503544 -0.3470201 -0.10569071 0.6328205
000050 dd 63 ce 3d 42 6b 97 be c0 33 cc be 4c aa 14 3f
       0.10077641 -0.2957402 -0.39883232 0.5807235
000060 20 b6 0f 3f bf 05 a7 3d c8 b7 08 3f 5b c2 e3 3e
       0.56137276 0.08155393 0.5340543 0.4448422
000070 22 50 c1 bd 46 1a b3 be a1 00 83 3d 88 6e 84 3d
       -0.09439112 -0.34980983 0.06396604 0.06466395
000080 08 4c 25 bf c5 6f ca be 8a 44 25 bf 95 a9 0b 3e
       -0.6456914 -0.39538398 -0.6455771 0.13638909
000090 bb 22 37 3e 97 ad 25 3f dd c1 69 3e a2 55 0a 3f
       0.17884342 0.64718 0.22827859 0.54036915
0000a0 36 40 eb 3e 5b bc 02 bf 69 d4 0e 3e 0b ef ee 3e
       0.45947427 -0.5106866 0.13948216 0.4666675
0000b0 d2 41 b9 3e 67 1b 2d 3f 14 53 27 3f f5 52 ac 3e
       0.3618303 0.6761994 0.6536114 0.3365704
0000c0 7d b2 b3 3e b4 c6 4d bd 56 58 9a 3b 1f 09 e4 3e
       0.35097113 -0.050238326 0.0047102375 0.4453821
0000d0 ed e0 4b 3f 20 49 a9 bd 35 ca bb be 4f 48 3e 3e
       0.79640085 -0.082659006 -0.3667771 0.18582271
0000e0 91 31 87 3e e5 f9 ef 3d 56 32 c4 be b0 3a 60 3d
       0.26405004 0.117175855 -0.38319653 0.05474347
0000f0 ff 16 0b bf 8c 18 86 be 51 10 3b 3e aa 35 06 be
       -0.54331964 -0.26190603 0.18267943 -0.13106409
000100 67 ae 1a 3f 21 7f c0 3d f3 a0 3a 3c 69 df ff bc
       0.60422367 0.09399248 0.011390912 -0.03123446
000110 19 10 7e be 34 8d 88 3d e1 46 12 bc e1 84 0b bf
       -0.24810828 0.06667557 -0.008928032 -0.5449963
000120 50 b7 d8 3e 36 33 d1 3e e3 84 63 3e 0c b1 1c bf
       0.42327356 0.40859383 0.22218661 -0.6120765
000130 69 f9 07 bd 4b 86 dd 3e 95 d0 0d 3f 94 2e c3 3e
       -0.03319684 0.4326652 0.55396396 0.38121474
000140 08 1d b4 be 88 71 d1 3d 4f 65 08 3e f8 c3 85 be
       -0.351784 0.102267325 0.13319896 -0.26126075
000150 08 2a 1c bf 82 ce 85 3b 57 ac d4 3e 71 cb 8c be
       -0.61001635 0.0040834555 0.41537735 -0.27498963
000160 d1 33 29 be 92 d9 d5 be c4 f5 fc 3d c0 e2 c3 3b
       -0.16523673 -0.41767555 0.123515636 0.0059779584
000170 6d 07 1a 3e 2a 98 09 3f 1a fc fc 3e 52 92 ae be
       0.15041895 0.5374781 0.49411088 -0.3409601
000180 c1 a8 c0 3c 83 5c 2c bf 6d 06 cb be f8 a5 87 3e
       0.023517968 -0.6732866 -0.3965334 0.26493812
000190 da 89 0a 3f 04 64 88 be e1 f6 69 be 30 8f 10 be
       0.54116595 -0.26638806 -0.22848083 -0.14117122
0001a0 09 6c 80 3f 5c f3 32 3f 2d a0 a1 3e 27 08 ea 3e
       1.003297 0.69902587 0.31567517 0.45709345
0001b0 1f 53 fb 3e 87 0f 9b 3e e5 22 7f be 3e 67 03 3d
       0.49086854 0.30285284 -0.24915655 0.03208088
0001c0 24 81 bf 3d a2 89 f4 be cb 17 27 be 2d 88 f4 be
       0.093508035 -0.47761256 -0.1631767 -0.47760144
0001d0 2b ec d8 bd e4 20 ca 3d 70 d7 9d 3e 44 31 ab 3e
       -0.105919205 0.09869555 0.30828428 0.33436024
0001e0 9c 05 2d 3f 70 30 e8 3d 6d f6 84 3e db 77 b9 3d
       0.67586684 0.11337364 0.25969258 0.09056064
0001f0 5c f8 a0 3e d7 a6 42 3e d5 04 3b 3f 76 24 ea 3e
       0.31439483 0.19008957 0.7305425 0.45730942
000200 d8 d6 82 3e 35 49 a3 be 17 f6 a3 be 39 d2 86 3e
       0.25554538 -0.3189179 -0.3202369 0.26332262
000210 7e 51 cb 3e 48 09 42 3f 31 95 c9 3e d3 b7 c1 be
       0.3971061 0.7579541 0.39371637 -0.3783556
000220 92 79 fc 3e 71 c1 50 3e af 24 3d 3e d8 05 19 bd
       0.493115 0.20386292 0.18471025 -0.03735909
000230 99 5c 3f 3e 0f 29 e2 bd 8e 5e 1e 3e 4b a2 68 3e
       0.18687667 -0.110429876 0.15465757 0.2271816
000240 0a 38 3c be fb 86 77 3f 4f 47 cb 3d f3 bd fc 3e
       -0.18380752 0.9669034 0.099257104 0.4936367
000250 ac 3e a9 3e 37 fc d5 3d f9 f2 16 3d c2 7a 49 3e
       0.33055627 0.10448497 0.03685281 0.19675735
000260 9a d7 a1 be 42 fa 03 3f bf 6c b3 3d d7 48 6c 3e
       -0.31609803 0.5155374 0.08760976 0.23074661
000270 d7 20 89 bd 41 b9 fd 3e 1c 65 84 3e 3a 41 ed 3e
       -0.06695717 0.495554 0.2585839 0.46338826
000280 03 5a 42 3e 15 f5 3c 3d e3 74 4f be 24 86 16 3e
       0.18979649 0.046132166 -0.20259432 0.14699608
000290 c8 82 1d 3f 63 8b db 3e 94 8b 03 bf c5 91 53 3e
       0.6152768 0.4287978 -0.51384854 0.20661075
0002a0 24 b1 db be 75 34 11 be 9f a1 ea be 65 cc b3 3e
       -0.42908585 -0.14180167 -0.45826432 0.35116878
0002b0 1a b6 87 bd b2 f2 ac be 3e 73 06 3e f9 3b ff 3d
       -0.0662653 -0.33778912 0.13129899 0.12462611
0002c0 59 08 b2 3e a6 2f 00 3f 50 62 e7 3e a5 9f bc be
       0.34771994 0.50072706 0.45192194 -0.3684055
0002d0 71 8c 88 bc 63 7c 3f 3f 3d b9 35 3f 6e 20 88 be
       -0.01666853 0.74799174 0.70985776 -0.26587242
0002e0 a5 cb 73 bd d1 5a 0a bf 96 0f ac bd 2b fc b3 bd
       -0.059520382 -0.54044825 -0.0840141 -0.087883316
0002f0 95 8e 64 3e b2 b9 f0 3e 5a f4 d0 bd de c1 a1 be
       0.22320016 0.47016674 -0.10202856 -0.3159322
000300 08 56 9b bc 87 6d a1 3d b3 f0 14 bf 65 21 4d be
       -0.018961921 0.07882219 -0.5817978 -0.2003227
000310 11 f4 14 bf 7c ee 9f bd 2b 2c 13 be fc 84 e6 3e
       -0.58184916 -0.07809159 -0.14372317 0.45023334
000320 2a 24 d1 3e 1a d5 24 3f b8 01 76 3e d3 00 0b bf
       0.40847903 0.6438767 0.24024093 -0.5429813
000330 52 34 c5 3d df 80 93 3d 84 99 93 3e 85 2c 3a 3f
       0.0962912 0.072023146 0.2882806 0.7272418
000340 c5 1f 44 3f 1c 9f 87 3e 22 a3 17 be 5c bd 6a 3e
       0.76610976 0.26488578 -0.14808324 0.22923797
000350 24 0a 4b be ae 28 b5 3e ca 56 92 3e 00 eb 64 3e
       -0.19828087 0.353826 0.2858184 0.2235527
000360 57 55 14 bd a9 a0 44 3e 1d fa 9c 3e 48 a5 24 3e
       -0.0362142 0.19201912 0.3065957 0.16078675
000370 5f 95 e3 be 62 66 69 3e b9 8d 10 bf 8f 9e fa be
       -0.444499 0.22792962 -0.5646625 -0.48949096
000380 50 ab 71 3e ad 8a ad 3e 80 73 f4 be 7c f8 f4 3c
       0.23600507 0.33894864 -0.4774437 0.029903643
000390 91 03 25 bd b5 98 55 be 4b f1 14 bf 97 75 37 be
       -0.040286604 -0.20859034 -0.58180684 -0.1791595
0003a0 bf 30 7e 3d d0 2d c9 be cb 02 a0 3e de a2 f8 3e
       0.062058207 -0.39292765 0.3125213 0.48561758
0003b0 0c 7e ea 3d 6f 08 c8 be 0c 30 20 3d 2b d9 b8 bd
       0.11449823 -0.39068934 0.03910832 -0.090257965
0003c0 37 69 2d be 3f 09 15 3f 18 ba e3 bc 87 32 bd be
       -0.16934668 0.58217233 -0.027798697 -0.36952612
0003d0 9f ac f9 3c 63 2a dd 3e 07 5c 52 3f e3 31 a7 3e
       0.03047782 0.431964 0.8217167 0.32655248
0003e0 8f f8 a2 be ba 98 cb 3e 8a 7f b3 3e ec 8c f7 3e
       -0.3183026 0.3976496 0.35058242 0.48349702
0003f0 d8 ac cb 3d 40 8a 36 bd f2 c5 b0 3c 85 03 3d 3f
       0.09945077 -0.04456544 0.021578763 0.73833495

l1.bias f4 [8]
000000 ef 4c 25 3f 5d 87 f4 3e 1b f5 14 3f 34 79 8b 3f
       0.64570516 0.47759524 0.581865 1.0896363
000010 c9 59 94 3f 46 e4 73 3e 71 b2 d4 3e 29 93 33 3f
       1.15899 0.23817548 0.4154239 0.70146424

l2.weight f4 [8, 8]
000000 80 c1 0e bf 0d c7 bb bd 61 b1 7d bf 6f ac 8d 3f
       -0.5576401 -0.09168825 -0.99098784 1.1068248
000010 7b 33 b3 3f ff 9d 95 3f 80 be 86 bf 90 a0 f3 3e
       1.4000086 1.1688842 -1.0526886 0.47583437
000020 73 19 90 3f 5b 1f 86 3f 80 32 88 3e e9 8d 51 be
       1.1257766 1.0478319 0.26601028 -0.2046429
000030 0e e6 e5 3f 27 68 89 bf 82 d6 58 be af c4 c4 3d
       1.7960832 -1.073491 -0.21175578 0.09607827
000040 f6 63 3f 3f 29 58 5f be 59 24 e6 be be 25 1b 3e
       0.74761903 -0.21810974 -0.44949606 0.15151116
000050 6a b0 88 3f b6 79 8c 3f ac f3 4a bf 42 2f 0a bf
       1.0678837 1.0974643 -0.79278064 -0.5397836
000060 c1 86 96 3f 4a 78 64 3f ce 5d 8e 3f 26 f6 a4 3e
       1.1759874 0.89246047 1.1122377 0.32219046
000070 40 bc a4 be 2d e9 cb be 4a ea 9f 3f 71 da de 3e
       -0.32174873 -0.39826337 1.2493374 0.43526033
000080 93 ff 68 3d 19 e5 31 bf 79 f1 70 3f 2d 4d b3 3f
       0.05688436 -0.694902 0.9411846 1.4007927
000090 c5 f7 a6 be 6b d0 84 3f 06 02 07 3f be da 86 3f
       -0.32610908 1.0376104 0.5273746 1.0535505
0000a0 f4 15 e6 3d d8 e8 8f 3d b0 60 80 be 71 16 9a be
       0.11234656 0.07026833 -0.25073767 -0.30095246
0000b0 ee cd 12 be 0f 85 a4 be f0 60 46 3d b9 d6 0a be
       -0.14336368 -0.32132766 0.04843229 -0.13558473
0000c0 16 93 f9 3e f1 b3 67 3f ac f9 0b bf c7 e3 12 bf
       0.4874503 0.90508944 -0.54677844 -0.5737881
0000d0 42 db 1a 3e 35 75 c0 3f 1c 80 ce 3d 76 94 0d 3f
       0.15122703 1.5035769 0.10083029 0.5530466
0000e0 ae 38 6a bd 79 c6 66 bf e0 2d 78 be 92 1b d2 3f
       -0.05718296 -0.90146595 -0.2423625 1.6414664
0000f0 bf 1f de be cd 0a cf 3e 79 8f 91 bd 35 ac 96 3f
       -0.43383595 0.40437928 -0.07107443 1.1771303

l2.bias f4 [8]
000000 39 2c 73 3f 77 c8 78 3f 5d 45 17 3f 18 6c 68 be
       0.94989353 0.97180885 0.59090215 -0.22697484
000010 fb 18 9a 3e 63 04 a5 be 90 5d 44 bf cf 37 24 3f
       0.30097184 -0.3222991 -0.76705265 0.6414766

l3.weight f4 [12, 8]
000000 d5 74 b7 be 86 de c4 bf ff 52 7b bf 57 39 ae 3e
       -0.35831323 -1.5380409 -0.98173517 0.34028122
000010 d4 83 c5 3e a1 62 af 3e 38 f4 89 bf 4a 40 1a 3f
       0.3857714 0.34254935 -1.0777655 0.6025435
000020 2e cb dc bf 9b 09 5e 3e 99 d7 99 bf b9 f6 8e 3e
       -1.7249506 0.21683352 -1.201892 0.2792261
000030 c4 f3 64 3e 70 c3 be bd 2c f5 7f bf 7c 27 0d 3f
       0.22358614 -0.093146205 -0.9998348 0.55138373
000040 8e 69 59 3e 48 0e 58 bf 87 fe 99 bf e1 12 cf be
       0.21231672 -0.8439679 -1.20308 -0.4044409
000050 54 5a ff 3d 93 9c 8a 3e 5a 78 0a 3f cb 3d 24 3e
       0.124684006 0.27072582 0.5408989 0.16039197
000060 1e ed c9 bf c6 23 4b 3f dc 35 d0 be 59 d1 14 3e
       -1.5775487 0.7935146 -0.4066609 0.14532985
000070 67 cd 78 bf 80 38 17 bd 69 db 04 3e 9c 3c 8b bf
       -0.9718842 -0.036919117 0.12974323 -1.0877872
000080 6d 44 54 bf 84 66 11 3d 15 dd 05 3d 6e a9 be 3d
       -0.8291691 0.035498157 0.032681543 0.0930966
000090 3f 81 28 3e 10 2a 05 3d 43 44 c4 3e 7c 06 87 bf
       0.16455553 0.032510817 0.3833333 -1.0548854
0000a0 09 50 29 be bd d0 dc 3e d6 e7 ba 3e df 4f d2 be
       -0.16534437 0.43128005 0.36505002 -0.41076562
0000b0 ad d5 9d bf be cc 58 3e 8b 06 ec 3e 41 69 a1 bf
       -1.2330834 0.21171853 0.46098742 -1.2610246
0000c0 55 07 29 3f de 9d 31 be 38 dd b5 3e 98 cb b8 bf
       0.6602681 -0.17345378 0.3552034 -1.4437132
0000d0 6b 94 0d be 12 fc 32 3e f3 70 05 3f 3a 30 66 bf
       -0.13826148 0.1747897 0.5212547 -0.8991734
0000e0 6f d5 cb 3e 41 52 2a 3f 05 e4 ea be cf e9 34 be
       0.39811274 0.6653176 -0.4587709 -0.17667316
0000f0 76 31 d0 bd 40 b2 78 3d 75 50 be bf 81 19 9a 3e
       -0.10165684 0.060716867 -1.4868304 0.30097583
000100 dd b4 3d 3f bf 70 87 bf 4f 60 4b be cb 88 cd bf
       0.741041 -1.0581282 -0.19860958 -1.6057371
000110 33 3e b3 3e 83 28 a3 3e f9 54 80 bf de 48 65 3f
       0.35008392 0.31866845 -1.0025932 0.8956431
000120 c5 3e 7c bf 3e 01 8a bf 8a 4e 67 bf 96 69 20 3f
       -0.9853328 -1.0781629 -0.90354216 0.6266111
000130 b8 79 92 3d 70 21 22 3d 3b a0 07 3f 98 69 6b be
       0.07152122 0.03958267 0.5297887 -0.229895
000140 f5 40 6d 3f 39 80 55 3f 27 8d 1c 3f 58 57 ae bf
       0.9267724 0.8339878 0.6115288 -1.3620405
000150 04 16 af bf 78 e8 3d 3d e1 4d b7 bf 0f 82 f3 bf
       -1.3678594 0.046364278 -1.4320642 -1.9024066
000160 d2 ee 85 bf 1c 78 94 3e c3 ad a0 bf 93 dd 40 3f
       -1.0463507 0.28997886 -1.2553028 0.75338095
000170 d5 4c 4e 3e 28 5e 98 3d dd 28 5b bf e0 6e d6 bf
       0.20146497 0.07439834 -0.8560923 -1.6752586

l3.bias f4 [12]
000000 35 4d 27 be 98 c3 93 be 5d 55 0d bf 38 d4 1c 3e
       -0.16338046 -0.28860164 -0.5520838 0.1531533
000010 fe c8 b4 be 19 77 a4 be 90 a0 b5 be 04 96 82 3e
       -0.35309595 -0.32122114 -0.35474062 0.25505078
000020 1c 12 c8 bd da 7b 8c 3e 80 a5 a1 3e 87 fc 32 be
       -0.09769079 0.2743824 0.3157158 -0.17479144
