data.pth (torch, 8426 bytes, 6 tensors)

l1.weight f4 [8, 105]
000000 06 e6 17 3f 40 57 b3 3e 6a 3f 14 bf b5 01 2c bf
       0.5933536 0.35027504 -0.5790926 -0.67190105
000010 4e 60 0f bf 45 17 a4 be 56 9c bc 3e 3b 79 27 3e
       -0.56006324 -0.32049003 0.36838025 0.1635484
000020 6e 74 61 bd be 9a 0b 3f a4 1e b4 3d e0 16 5b 3b
       -0.055042677 0.5453299 0.08794907 0.0033430383
000030 78 8d 4d bd 53 ac d0 3d b3 22 bc 3e d0 a1 ae bd
       -0.050183743 0.10189118 0.36745223 -0.08526957
000040 b3 78 94 be e0 d3 82 3e bf 3f 98 3f 2d ca 19 bf
       -0.28998336 0.25552273 1.1894454 -0.6007412
000050 76 9c 42 be 41 f0 43 be 22 2c 1e bf 81 3e 15 bf
       -0.19004998 -0.19134618 -0.6178609 -0.582985
000060 0a 72 84 be f4 52 8a 3f d5 cc 70 be 15 f2 e3 3e
       -0.25868255 1.0806565 -0.23515637 0.4452063
000070 36 4f 60 3d 74 87 67 3f cc 15 86 bd 1b ef da 3e
       0.05476304 0.9044106 -0.06547126 0.42760548
000080 d1 68 dc bd 8a 29 23 3f 96 70 24 3d 1f 6b 43 3e
       -0.1076218 0.6373526 0.040146433 0.19083832
000090 47 fb 31 3e 22 bd 3d 3f 70 70 74 3f 50 66 2e 3f
       0.17381011 0.7411672 0.95484066 0.68124866
0000a0 78 3a 5e be 18 41 2b 3e 22 bb b0 3e 6a 38 97 3d
       -0.21701992 0.1672405 0.3451777 0.07383807
0000b0 6e f3 b9 3e f5 85 ba 3e e4 cf 0f 3f 5b 99 6f 3f
       0.36318535 0.36430326 0.5617659 0.93593377
0000c0 e7 5b 8e bd 71 bb 21 3e ac 9e 74 3e 37 8a 45 3f
       -0.06951123 0.1579416 0.23888654 0.77164024
0000d0 d9 42 37 be ff 2b 3e 3e 7e 17 06 bf 61 8f 24 3f
       -0.17896594 0.1857147 -0.52379596 0.6428128
0000e0 00 fe 94 3e 4b f3 1f 3e f2 92 0b 3f 5b 46 81 bd
       0.29100037 0.15620153 0.54521096 -0.06312247
0000f0 f9 e6 bf 3e f1 8d 90 3e 49 4b 54 3e d7 e6 0c be
       0.37480906 0.28233293 0.20731844 -0.13759933
000100 fc 9c cb 3d af 5f 3a 3f 74 cc 56 3f 78 f4 b6 3e
       0.09942052 0.7280225 0.8390572 0.3573339
000110 3c cf 59 be 17 72 10 bf e7 a5 ac 3e 93 55 11 3f
       -0.2127046 -0.5642409 0.33720323 0.567712
000120 1f 6e a1 3d 84 cf 68 3e 54 81 97 3e 76 fc b7 be
       0.07882332 0.22735411 0.29590857 -0.359348
000130 54 1b 69 bf 8d d3 99 3e a2 a8 a6 3e 60 72 cf be
       -0.91057324 0.30044213 0.32550532 -0.4051695
000140 95 68 e7 3e 83 2e 92 3f a6 a8 15 3d 05 0f 83 3f
       0.45196977 1.1420444 0.03653779 1.0238959
000150 86 fe 31 be 14 d2 e0 3e 3e 08 f5 bd 06 38 48 be
       -0.17382249 0.43910277 -0.11964463 -0.19552621
000160 16 f7 2c bf 6e 5b c7 3e ab ff db 3e 7a 0f 39 be
       -0.67564523 0.38936943 0.42968497 -0.1807231
000170 b6 ed a9 3e 86 cb 1d 3f 2f 36 b8 be 15 77 71 3c
       0.33189172 0.6163868 -0.3597884 0.014737864
000180 11 3c 26 3f a1 da 24 bd 64 44 2c be a1 c4 c7 3d
       0.64935404 -0.040247563 -0.16822964 0.09754301
000190 03 0a fc 3d 1f c0 0e bf e1 d5 3a be e4 6a 8f 3f
       0.12306597 -0.55761904 -0.18245651 1.1204495
0001a0 97 f7 d6 3e 3d c9 dc 3e 8d 3a 83 bb f4 82 82 be
       0.4198577 0.43122283 -0.0040047825 -0.25490534
0001b0 33 50 d6 be 6d 38 56 bf 97 62 df 3e fa 27 08 bd
       -0.41858062 -0.8367985 0.43629906 -0.03324125
0001c0 4b 55 88 3f eb b3 8d be 0b b9 38 be b9 00 8a 3f
       1.0651029 -0.2767633 -0.18039338 1.078147
0001d0 0c 4b e9 3c 54 82 83 be b7 43 b5 bd f0 0c 02 bb
       0.028478168 -0.2568537 -0.08850806 -0.0019844137
0001e0 f6 59 ec be e6 2d a0 be c5 8d c0 be f1 cf 7b bf
       -0.46162385 -0.31285018 -0.37608162 -0.9836417
0001f0 3d b7 35 be 04 e5 23 3f f0 60 25 3e b1 74 d7 3d
       -0.17745681 0.64021325 0.1615026 0.10520304
000200 4c 23 67 be 0e d4 9b 3e 07 38 f3 3e c4 7a 90 3e
       -0.22572058 0.30435222 0.47503683 0.28218663
000210 bb ea d7 be 32 5d 17 3d 86 c7 5f 3f 0d eb b3 3e
       -0.42171273 0.036954112 0.87413824 0.35140267
000220 23 ea 14 3f 10 d7 03 3f 2b 20 9c be ee 58 0b bd
       0.58169764 0.51500034 -0.30493292 -0.034020357
000230 49 9a c3 3c 78 7b 04 3e c8 53 51 3e 2f b7 33 bf
       0.02387728 0.12937725 0.20442116 -0.7020139
000240 56 3e 4d 3e f5 31 bf be a7 04 bb 3c a4 e2 b6 bd
       0.2004331 -0.37342802 0.022829367 -0.08929947
000250 02 ab 91 3f 34 dd c7 be 73 c9 80 be f3 fd a5 be
       1.1380312 -0.39035952 -0.25153694 -0.3242031
000260 07 e0 40 3e 04 15 03 bd 38 8a 47 be 3e 73 86 3e
       0.1883546 -0.032002464 -0.1948632 0.26259798
000270 c9 11 13 3f 12 3a 4d be 47 85 df bd 62 20 0e 3e
       0.57449013 -0.20041683 -0.109140925 0.1387954
000280 32 47 c3 be 1e 1a e0 3e 11 3c f7 3e cd b3 48 3e
       -0.38140255 0.43769926 0.48288015 0.19599839
000290 81 b5 ad 3e 84 f5 a1 3e 98 3e 2a 3d 68 6d 1f 3d
       0.3392754 0.31632626 0.0415636 0.038922697
0002a0 d0 40 07 bf 7a c0 46 3d 96 74 2e 3f 6c c8 23 3e
       -0.5283327 0.048523404 0.68146646 0.15994424
0002b0 9f d4 9f 3e 3f 9d e4 3e 5a c1 22 bf 5b 17 d0 be
       0.31216905 0.4465122 -0.6357628 -0.4064282
0002c0 3b 29 40 3f a5 c8 40 bd e7 cc 4a 3d 28 d8 08 b8
       0.7506291 -0.04706635 0.049511816 -3.2626238e-05
0002d0 2d 27 4a 3f 59 f9 a0 3d a8 76 e7 3e a2 37 88 be
       0.7896603 0.07860059 0.45207715 -0.26604944
0002e0 27 de cd be 9b c9 f6 3e 19 54 de 3e d6 0d 71 3d
       -0.4020855 0.48200688 0.43423536 0.058851086
0002f0 8d 89 53 bf 1e ef 81 3e ed e0 a2 3f a2 13 21 3f
       -0.8263176 0.25377744 1.2724892 0.6292058
000300 be f8 92 bd f6 9e 94 3f f4 53 d4 be 97 22 b6 be
       -0.0717635 1.1611011 -0.414703 -0.35573265
000310 b3 a5 d8 3e dd b8 a8 3e 5c c3 3f bd 05 e3 3f 3f
       0.42313918 0.3295354 -0.04681717 0.7495578
000320 97 54 95 be 05 4b b4 be 3d 45 7b 3d 1f f3 4c be
       -0.291661 -0.35213485 0.061345328 -0.20014618
000330 bc 75 21 3f 4a 51 06 bd 4b 54 ed be ce 2c 4c be
       0.63070273 -0.032792367 -0.46353373 -0.19938967
000340 25 bb 91 3e 16 18 db 3e 3e be 4b 3e bd cd 21 3e
       0.28463092 0.42791814 0.1989679 0.15801139
000350 91 4c 4c bf a5 4d 76 bf 7a 3c 60 3f cd 77 ec bd
       -0.7980433 -0.96212226 0.8759228 -0.11546288
000360 28 f7 38 3f 73 99 90 bf b3 90 95 3e 38 ca 32 bf
       0.7225213 -1.1296829 0.2921196 -0.6983981
000370 4c fe 72 bf 7e ef 9e bd 9f 7e d2 be 68 f3 65 3e
       -0.94919276 -0.07760523 -0.4111223 0.22456133
000380 00 c0 a1 3e 15 64 21 3f 71 6e 04 bf d1 5d 78 3e
       0.31591797 0.6304334 -0.5173102 0.24254538
000390 8e 47 1b 3f 6f cc a4 be 42 e3 23 bf 53 7d 80 be
       0.6065606 -0.3218722 -0.6401864 -0.25095615
0003a0 8d 8e 92 3e 31 ff f6 be d8 2b a2 3e eb ca b2 3e
       0.28624383 -0.4824157 0.31674075 0.3492044
0003b0 c7 87 88 be ac b1 86 3f 1c a0 eb 3c b8 ba 4c 3f
       -0.2666609 1.0522971 0.02876287 0.7997241
0003c0 84 f8 85 3e 16 1f 02 3f 09 4e c0 3e 24 83 cd 3e
       0.26166165 0.50828683 0.37559536 0.40139115
0003d0 37 c7 b0 3d 10 d6 21 be 75 82 7b 3e e0 83 6e bf
       0.08631747 -0.15804315 0.24561484 -0.93169975
0003e0 70 57 7e 3f 0f 70 65 bf 5e df b3 be 26 27 03 3e
       0.9935217 -0.8962411 -0.35131353 0.12807903
0003f0 e3 73 b8 3e 9b 3a f0 3e 27 29 2d 3f 57 e1 4f 3e
       0.36025915 0.46919712 0.6764092 0.20300804

l1.bias f4 [8]
000000 45 9c a0 3f 01 1b 56 3f 0b f0 8b 3f fa 05 77 3f
       1.254769 0.83634955 1.093263 0.96493495
000010 91 15 8d 3f d1 2f 13 3f 1c 09 9a 3f 0b 91 95 3f
       1.1022207 0.5749484 1.203403 1.1684889

l2.weight f4 [8, 8]
000000 ea 96 aa 3f 90 f7 6a bf 4a d1 ce 3f 5c 63 87 be
       1.3327305 -0.91784 1.615762 -0.26442993
000010 d8 c8 69 bf 8e be b1 3f 8d 0c d8 be 66 96 15 bf
       -0.9132209 1.3886278 -0.42197075 -0.58432615
000020 e9 76 83 3d e1 96 a9 3d 7b da b0 be 68 e3 c8 bf
       0.06419165 0.08280731 -0.34541687 -1.5694399
000030 0c 14 d7 3e 6f 38 c2 3f cc ea 00 40 c0 62 e8 3f
       0.42007482 1.5173472 2.0143309 1.8155136
000040 98 23 bf 3f b5 6f e9 3f 84 fe 7a 3e 70 a3 f4 3f
       1.4932737 1.8237215 0.24511153 1.9112377
000050 bc d2 81 3f 3e 91 3a bf 2d 2d ce 3d 9d fe 49 bf
       1.0142436 -0.7287787 0.1006721 -0.78904134
000060 51 1c 0b 3f c7 df 10 3f db 74 d9 3f 60 bf 1a 3f
       0.5434008 0.5659146 1.6988786 0.60448265
000070 7c 04 9c bf be 7e 09 bf 77 4d 98 3f 29 7d 50 bf
       -1.2188869 -0.5370902 1.189864 -0.8144098
000080 aa 0b 2e 3f 7b 4b be 3f f4 5c 49 bf 4b d5 10 3f
       0.6798655 1.4866785 -0.7865746 0.5657546
000090 64 dd 8d 3f 29 11 cf 3f 72 52 03 3f 35 7d 21 bf
       1.1083188 1.6177112 0.51297677 -0.63081676
0000a0 dc 7f 83 bf 39 22 bf 3d 58 89 6a 3f c8 fb f6 3f
       -1.0273395 0.09332699 0.9161582 1.9295588
0000b0 1d c1 a5 bf 69 db e3 3e 94 c3 64 3f 36 31 a7 3f
       -1.2949558 0.44503334 0.8936093 1.3061893
0000c0 ff cb 91 3f 00 10 b6 bf de 1d b4 3f 4c 83 55 be
       1.139038 -1.4223633 1.4071615 -0.20850867
0000d0 d8 ce da 3f e2 19 00 3f 75 21 41 bf 05 db ea 3e
       1.7094374 0.50039494 -0.75441676 0.45870224
0000e0 20 29 6f be 32 e9 42 be 74 d2 82 be d7 6c e3 3d
       -0.23355532 -0.1903427 -0.25551188 0.11104744
0000f0 de f4 73 3e 92 02 ad be 8e 38 46 3e 39 f7 bb be
       0.23823878 -0.33791023 0.19357511 -0.36712053

l2.bias f4 [8]
000000 b3 97 09 be 04 07 a4 3f ad 94 7c 3f da 3b 49 3f
       -0.13436775 1.2814641 0.9866436 0.7860695
000010 e0 3e 13 bf 1b 44 ca 3e 89 49 0f 3f ef 65 16 be
       -0.57517815 0.39505085 0.5597158 -0.14687322

l3.weight f4 [19, 8]
000000 4b 76 26 bc 58 84 e3 bf 79 8e bf 3e 0c e2 89 be
       -0.010160039 -1.7774763 0.37413386 -0.26930273
000010 11 7d 97 bd 22 4c e1 bf cc cf 9d 3e 4e 6a 1f be
       -0.073969014 -1.7601359 0.308226 -0.15567896
000020 6f 9b dd bf 14 cb 2c 3f da 9b 0c c0 37 d4 91 bf
       -1.731306 0.6749737 -2.1970124 -1.1392888
000030 18 b2 f3 3e 13 9a af be 68 e5 85 3e 0e 1d 07 be
       0.47596812 -0.34297237 0.26151586 -0.13194677
000040 b3 f4 f9 bd dd c8 e6 be d4 85 59 be 54 74 74 3e
       -0.12204876 -0.45075122 -0.21242458 0.238725
000050 34 ec 65 3e 6a 21 d1 3e 66 e1 d6 bf c7 ed a2 be
       0.22453386 0.40845805 -1.6787536 -0.31822035
000060 47 7a ba bf f7 2f 82 3e e9 3a 15 bf c9 2a 48 bf
       -1.4568566 0.2542722 -0.58293015 -0.78190285
000070 29 13 d7 3e f4 57 d6 3e db 0a ba bf 3c 7d 8e bc
       0.42006806 0.41863978 -1.4534563 -0.0173937
000080 76 ec cf bf f6 f3 71 3f 8a 5f ae bf 7d 58 9f bf
       -1.6244037 0.9451288 -1.3622906 -1.244888
000090 57 2f 9b bf 9d 29 20 3f 40 b2 ac bf 19 87 98 be
       -1.2123822 0.62563497 -1.3491898 -0.2979057
0000a0 5e df 45 3f 4d c9 a1 bf f6 99 da be 21 8f 00 3e
       0.77293956 -1.2639557 -0.42695588 0.125546
0000b0 db bd f8 be 32 f2 69 bf e3 76 b5 3e 55 57 17 bb
       -0.48582348 -0.91385186 0.35442266 -0.0023092825
0000c0 19 7a 98 3e 37 c5 b6 3e ba 9a 25 c0 28 64 5e 3e
       0.29780653 0.35697338 -2.5875688 0.21717894
0000d0 cb 6e cf be 3c a6 5b 3e b8 af 97 be 97 cf 4f 3e
       -0.40514216 0.21450132 -0.2962625 0.20294033
0000e0 76 9b f4 be f9 1a 64 bf 91 00 25 3f 6a 4f a7 bf
       -0.47774857 -0.89103657 0.6445399 -1.307111
0000f0 b5 2a 63 3f 5c 6b 61 bf e2 97 14 bf 6e ea 80 be
       0.8873704 -0.8805444 -0.58044255 -0.25178856
000100 9f 6d ea 3e ae 05 0a 3d b0 c4 bf be 3d 94 2a 3f
       0.4578676 0.033696823 -0.37454748 0.66632444
000110 2e 96 b2 bf 65 8e 16 bf d6 80 45 be b6 95 4d 3d
       -1.3952081 -0.58811027 -0.19287428 0.050191604
000120 a6 6d a8 bf 5a fd aa 3d f7 ca f9 be 4f bd 02 3f
       -1.3158462 0.08349104 -0.48787662 0.5107011
000130 17 8b c2 bf 5b c4 4c 3f c9 09 98 bf f1 6b ac 3e
       -1.5198697 0.79987115 -1.1877986 0.33676103
000140 4d ae e0 bd d6 1e cb 3e e7 2a 5c bf 3e 32 1f be
       -0.10970745 0.39671963 -0.86002964 -0.1554651
000150 8e d3 ea 3e b3 eb ee be 88 38 9c bf e5 fc 6c be
       0.45864528 -0.466642 -1.2204752 -0.23143347
000160 64 db f4 3e e9 e7 c0 bf 47 2d cc 3e 07 e4 0a 3e
       0.47823632 -1.5070773 0.39878294 0.13563548
000170 a2 a1 3a 3b 25 e3 6d be 33 98 5d bf 9c e9 55 be
       0.0028477688 -0.2323118 -0.8656036 -0.20889896
000180 9d 86 b4 3e ac aa 25 be 4e a8 8e be 13 18 d8 bf
       0.35258952 -0.16178387 -0.2786278 -1.6882347
000190 e7 f3 72 3e bf be 95 bf 8c 89 4f 3e 96 cc 9f 3e
       0.23725854 -1.1698836 0.20267314 0.31210774
0001a0 b3 40 c1 be 3b 50 de bf 0e b8 06 3f 3a 51 6d 3f
       -0.37744674 -1.7368234 0.52624595 0.92702067
0001b0 39 82 1b bf ae 89 b7 3e 89 ab ff bf 56 69 98 bd
       -0.6074558 0.3584723 -1.9974223 -0.07441966
0001c0 ef 65 ca 3e 7f 8e 02 c0 8e 71 89 3d a6 3e b3 3e
       0.39530894 -2.0399473 0.06711112 0.35008734
0001d0 83 06 c6 bf 5f 8c bb 3e 20 fb 3d 3c 57 b3 a4 bd
       -1.5470737 0.36630532 0.011595517 -0.08042019
0001e0 18 78 91 3e 76 a8 1b 3e f7 c2 be bf 4c b7 eb bf
       0.28411937 0.15200981 -1.4903249 -1.8415313
0001f0 8a e1 50 bf 07 f7 eb bd 04 54 4e 3f e8 cb 5b 3e
       -0.81594145 -0.11521726 0.8059695 0.21464503
000200 96 de ab bf 01 ba 09 bd c5 d2 4f 3f 0a 32 83 be
       -1.3427303 -0.033624653 0.81180984 -0.25624114
000210 eb ab 23 bf 85 6c 7b bd 6d ca 9e bc 6a ed 6b be
       -0.639342 -0.06138279 -0.019383634 -0.23039785
000220 74 d2 ea bf 38 ed 11 3f 2f fe 53 3e 3e d1 14 c0
       -1.8345475 0.5700259 0.20702432 -2.3252711
000230 23 2d 4d 3d ff 03 c3 bf 7b 7f 73 3e 78 cf 92 3e
       0.050091874 -1.5235595 0.23779099 0.2867391
000240 da 1b 0a c0 09 b1 5b 3e e7 35 19 3f 76 c5 08 3f
       -2.15795 0.21454252 0.59847873 0.534263
000250 d0 33 86 3e 9c 06 9f bf 9f ab 1b c0 5d 7b 0c be
       0.26211405 -1.2423892 -2.43235 -0.13718934

l3.bias f4 [19]
000000 86 63 52 3e 0c b2 39 bc 29 db c6 be e7 17 11 bf
       0.20545778 -0.011333954 -0.3883908 -0.566771
000010 4f 29 ea 3e 66 9f 4e be 6f 4f 93 bd 9f 9a be 3c
       0.4573464 -0.20177993 -0.07192885 0.023267088
000020 db 66 7b 3e 32 86 c3 3e ff cc f5 be e2 53 f1 bc
       0.24550955 0.3818832 -0.48007962 -0.029458944
000030 a1 7d 05 bf c9 ef b9 3e 55 60 09 3e ef c8 96 3e
       -0.5214482 0.36315754 0.13415654 0.29450175
000040 20 89 6a 3e b4 ad e2 3e ee d8 59 3e
       0.22903872 0.4427315 0.21274158
