data.pth (torch, 5418 bytes, 6 tensors)

l1.weight f4 [8, 54]
00000000: 87eb fcbd b527 e2bd 2cc7 0c3d 2c97 72bd
00000010: dd90 01be 38db 313d 6426 fc3d f8c8 323d
00000020: f4ca afbd e874 583d f2f0 17bd f276 58bd
00000030: ab72 cebd 722a efbd 6460 a33d 9a03 47bd
00000040: 70c5 f4bd 6a62 abbd ea45 d5bd b44e 663d
00000050: 487a f33d 8017 a7ba 08c2 9bbd c073 01bb
00000060: d04c 3e3c d0be 563c 86a4 86bd a002 173d
00000070: 968c 25bc b409 ccbd 9fa2 dabd 5818 ffbd
00000080: ef7d d3bd 56c7 a13d 540f afbd f2a1 dbbd
00000090: f872 003e 3249 d43d 93a9 fdbd 1ce3 e6bd
000000a0: 5c58 d9bc 80bb fabb 4254 bbbd 3886 ae3c
000000b0: b845 7c3d f8f5 783d 1c93 b53d e6fd ac3d
000000c0: 2686 903d 06db ca3d 4c13 9b3d a8dc f13d
000000d0: fe2e 08bd 1636 aabd f8ae bfbe 3939 b9be
000000e0: 3c3b 123f 5f29 fb3e d61f ad3e 66e0 7d3e
000000f0: 3928 a33e 50b2 e23e d078 df3e b656 de3e
00000100: d539 353f 6171 be3e 0f3e 0d3e 846c 023f
00000110: 7f16 3bbe aaea a23e edc5 113f 304c 8bbc
00000120: 2332 a0be 9c25 393f 1aff 9dbe f7bf 543f
00000130: 999d 3f3f d140 ea3e 11cf 903e d112 0d3f
00000140: ac56 a0be 0398 e1be 2cb6 86be 0b39 bfbe
00000150: 475f 36be 8a85 993e 3fc4 c4bc 254f f53e
00000160: fae3 52be 9aa0 c33e 8cf2 a2be 3567 0a3f
00000170: b6c6 d83e 8556 6e3e 2723 20be e9bc babe
00000180: 6273 873e e55a a0be 9ac2 e83e fc1e 6cbe
00000190: 7a36 72bf cdaf 86be 4b95 2b3e fdb3 d6be
000001a0: a426 a33e d927 ecbd feb3 673e fb65 bb3d
000001b0: 510f 313f 6c50 9b3d b7f7 d3be be90 7b3e
000001c0: 32c4 933d f7ea f83d 82b7 aabe cd75 3bbe
000001d0: dcdf f4be 1a74 90be 46a4 063e addc dd3e
000001e0: d5b5 21be a33a 9e3e 8946 50be 2504 dc3e
000001f0: 293e 3d3e f0ec eabd d326 8b3e bcbf b83e
00000200: e7cb 0a3f e3f2 bf3e 27e6 b03e f5c5 0f3f
00000210: b03e 383e 314a b33e 7b55 8c3e d413 0bbf
00000220: c255 573d 8189 07bf 503f 4b3e efce e63e
00000230: 736e b33e e5df 18bf f51b 85be e970 973e
00000240: 63da c53d f4ad d7be e07c a1be 7458 95be
00000250: 9efd b33e 394d ac3e ca20 8a3e 87e0 10be
00000260: 5659 f63d db58 8bbe 0336 5f3f 1306 c13e
00000270: eb7e 953e 1b44 883e d773 713e cd0d 573e
00000280: 8f7b e2bd fbf5 a23e ea9c 39bd 1ed4 b8be
00000290: cbf3 c83e 8702 003d 9f58 d13e c782 fbbe
000002a0: ff94 d63e a1bc f43e 7fd3 253f 5722 e33e
000002b0: ece5 ed3d 800e c73e 3623 ea3e b41b d43e
000002c0: c0e4 c1bc a828 e13d dc80 303d a8ed 5dbc
000002d0: a537 94be 5c22 873e 258d 5dbe 16bb 463e
000002e0: 3434 513e 509e 983d 458b b53e c633 b13d
000002f0: 0b1d 6abe 7b0f 9abe 6f3f 8f3d c562 fcbe
00000300: c7aa 9bbe 3b18 c83e ac47 8c3d 87be e83e
00000310: 67be 1cbe 0a32 a43d 4c66 973e 9418 2f3f
00000320: 46c9 e13e 4d99 e73e 7b67 ccbe 2d9c 8cbe
00000330: 2cf4 9c3e 14ca f1bd a0b2 1f3f a9fc 44be
00000340: ed07 34bf 5112 6bbe 4195 7a3e dffa d5be
00000350: c7d7 223e 5be0 20be 74d9 d93e 771f 593e
00000360: c49e 14bd ac8a 74be b4a8 52be a79a 80be
00000370: a750 64bf 4b71 f43e ad42 2bbe e4a2 85be
00000380: 3b3e 93bd 57bd 4fbe 86e1 06bf fe5a 343f
00000390: 6f15 cc3d a3e1 443f 4cdb 8ebe ca23 cd3e
000003a0: fae6 babe 40ce 503b c37f 41be 475d 64bf
000003b0: 93e7 42be a548 64bf 3b54 64bf eed5 973e
000003c0: e137 b03e 6941 babe a9ee 09be b66c 70be
000003d0: 9d7d b6bd 1a6e 84be 644a 1e3f 922a 2f3f
000003e0: 0ce2 ae3e 0db8 84bd 5f94 93be 96c2 ed3e
000003f0: 04fc 773d b408 663d 4cad 78be 4db3 37be
-0.12349611 -0.1104273 0.034369633 -0.0592262 -0.12652917 0.043421954 0.1231201 0.04364869
-0.08583632 0.052845865 -0.037095018 -0.05284781 -0.10080465 -0.11678018 0.079773694 -0.04858742
-0.11951721 -0.0836838 -0.10413726 0.0562274 0.11888558 -0.0012748092 -0.07605368 -0.001975283
0.011614993 0.013107017 -0.06574349 0.036867738 -0.010104319 -0.09962788 -0.10675549 -0.12455815
-0.10326754 0.078993484 -0.085478455 -0.10724248 0.12543857 0.103655234 -0.12385859 -0.112737864
-0.02653139 -0.0076517463 -0.0914693 0.021304235 0.061589926 0.06078145 0.088659495 0.08446865
0.07056837 0.09905057 0.0757204 0.11809665 -0.03324794 -0.08311097 -0.37438178 -0.3617647
0.57121634 0.49055 0.3381335 0.24792632 0.31866625 0.44276667 0.4364686 0.4342553
0.7079137 0.37195876 0.13793205 0.5094683 -0.182703 0.3181966 0.56942636 -0.017004102
-0.3128825 0.7232301 -0.3085869 0.83105415 0.7484985 0.45752576 0.2828298 0.55106837
-0.31316125 -0.44061288 -0.2631086 -0.37348208 -0.17809783 0.29984695 -0.024019359 0.47911945
-0.20594779 0.38208467 -0.31825674 0.5406373 0.42339104 0.23275192 -0.1563841 -0.36472252
0.26455218 -0.31319347 0.4546097 -0.23058695 -0.94614375 -0.26306 0.1675617 -0.41934195
0.31865418 -0.11531038 0.22627255 0.091503106 0.69163996 0.07583699 -0.4139993 0.24566934
0.07215156 0.12154191 -0.3334313 -0.18306656 -0.4782704 -0.28213578 0.13148603 0.43332425
-0.1579202 0.3090411 -0.20339407 0.42971912 0.18480743 -0.114709735 0.27178058 0.36083782
0.5421738 0.37489995 0.34550592 0.56161433 0.17992663 0.3501754 0.27408966 -0.5432713
0.05257202 -0.5294419 0.1984837 0.45079753 0.35045204 -0.59716636 -0.25997892 0.2957833
0.096607946 -0.42124903 -0.31540585 -0.29169047 0.35154432 0.33652666 0.2697814 -0.1414815
0.12028758 -0.2721623 0.8719179 0.37699947 0.29198393 0.2661446 0.23579346 0.21001358
-0.11058723 0.31828293 -0.04531566 -0.36099333 0.392485 0.03125241 0.40887925 -0.49123213
0.4191055 0.47800162 0.6477584 0.44362137 0.1161612 0.3887825 0.4572999 0.41427386
-0.023668647 0.10994083 0.04309164 -0.013545431 -0.28948703 0.26393402 -0.21635874 0.19407305
0.2043007 0.07452071 0.35457817 0.08652453 -0.22862642 -0.30089936 0.06994521 -0.49294105
-0.3040373 0.39080986 0.06849608 0.4545786 -0.15307008 0.08017357 0.29570234 0.6839688
0.44098872 0.45234147 -0.399227 -0.27462903 0.30655038 -0.118061215 0.62381935 -0.19237007
-0.70324594 -0.22956206 0.24470998 -0.41792962 0.15902625 -0.15710585 0.42548716 0.21203409
-0.036284223 -0.23881024 -0.20572168 -0.2511799 -0.89185566 0.47742686 -0.16724654 -0.26100838
-0.07189604 -0.20287071 -0.5268787 0.70451343 0.09965026 0.76906794 -0.27901685 0.40066367
-0.36504346 0.0031861216 -0.18896393 -0.8920483 -0.19033651 -0.89173347 -0.89191025 0.29655403
0.34417632 -0.3637803 -0.13469948 -0.2347897 -0.089106776 -0.2586525 0.6183226 0.6842433
0.34156835 -0.064804174 -0.28824136 0.4643752 0.060543075 0.056160644 -0.24284858 -0.17939492

l1.bias f4 [8]
00000000: 0e01 08be 6d38 723f 738c 603f 427d fb3e
00000010: 265c 643f ddc2 a63e 77ea 463f 3816 4d3f
-0.13281652 0.9461735 0.8771431 0.49119002 0.8920311 0.32570544 0.77701515 0.8011203

l2.weight f4 [8, 8]
00000000: d98c 843e e487 d03b a86a 183f 91ca 8f3c
00000010: 3d81 08bf a210 033f 3c03 783e f735 d33d
00000020: 8f91 70bc 876c 39bd de37 ff3e 33fd 44bf
00000030: bb77 ffbd 3939 5d3e 2527 983f 73f8 c7bd
00000040: 68a2 abbe 93ea ecbe b3ef b43f f107 3abf
00000050: 8b5a 9abf 5994 eebd e959 c43f 0419 263e
00000060: 8455 ef3d c50a 533f 9435 45bf c08d 773f
00000070: 6dab 33bf e36f 863f 002e 863f 8f58 1c3e
00000080: 6613 bd3d 9a4b 533f 1f54 223f 8a27 5a3f
00000090: 243a 8b3f d18e 03bf e877 9dbf 367b c43f
000000a0: 58d9 db3d 1c97 903e 02d8 8c3f 4ca2 dabd
000000b0: 76df ce3f b313 fbbe ed40 343f 8c49 fdbe
000000c0: f0d9 cd3c fd7f 9cbd 4c21 72be 8448 473f
000000d0: 582c 8d3f 9d86 77bf 4a21 4e3f 2701 f73c
000000e0: 4c67 943e 2972 b63f b545 873f 3da7 093f
000000f0: b39e 363e 6cd9 b43f 3ea3 433f a9e7 1abf
0.25888708 0.0063638557 0.59537745 0.017552646 -0.533222 0.51197255 0.24219984 0.10313027
-0.014683141 -0.045269515 0.4984731 -0.7694885 -0.12474009 0.2160386 1.1886946 -0.09764185
-0.33522344 -0.46272716 1.413565 -0.7266837 -1.2058882 -0.11649389 1.5339938 0.1622048
0.11686233 0.8243831 -0.7703488 0.9670067 -0.7018345 1.0502895 1.0482788 0.15268157
0.092322156 0.82537234 0.6340961 0.8521658 1.0877118 -0.51389796 -1.2302217 1.5350101
0.107348144 0.28240287 1.100342 -0.10675487 1.6161945 -0.49038467 0.7041157 -0.49470174
0.025128335 -0.07641599 -0.23645514 0.77845025 1.1029158 -0.9668978 0.80519545 0.030151917
0.2898506 1.4253589 1.0568148 0.5377081 0.17833976 1.4128852 0.7642096 -0.60509735

l2.bias f4 [8]
00000000: a274 01bf 4a57 b13f 8821 7e3f 6ee0 82bd
00000010: 219a 0f3f 09b6 89be 678e 9c3d de28 6bbe
-0.5056859 1.3854764 0.99269915 -0.06390463 0.5609456 -0.26896694 0.076443486 -0.22964808

l3.weight f4 [7, 8]
00000000: 66e4 96bf 3c5b e2bf 90c0 ccbf 4ab9 89bf
00000010: db08 143f 6207 ef3e 9394 063f 9d95 523e
00000020: 1ad4 d0bf 5bc2 863f 6f2b 703f f7ea 91bd
00000030: 5f3b 30bf 6efb 07c0 a460 aa3e 684c 5bbf
00000040: a3fe 15c0 38e8 c13e 6005 17bf 10e6 0abf
00000050: 64d9 d53d 119a 2b3f 098f 1c3e 0c2c d23d
00000060: 8bf5 a43f c176 7f3d 16ee 013e 1af1 c83e
00000070: 07d0 9bbf d9f9 c8be 983d e0bf d005 173f
00000080: 0649 8b3f 2274 db3c 8764 a73e ef9c c4bf
00000090: e70e 1d3f 083e c1bf 45ca aabf f6ee 4ebf
000000a0: fe90 973e c700 97bf 5273 85bf 500e 823f
000000b0: 8e87 babd 55d4 91bf ba1d b33e dd09 553e
000000c0: ff98 213f 6ab0 b83d 8ae8 343f 4c63 acbf
000000d0: 6870 debf 230d 473f 70bf 8c3d 408a 70bc
-1.1788452 -1.7684093 -1.5996265 -1.0759671 0.5782601 0.4668532 0.52570456 0.20564885
-1.6314728 1.0528063 0.93816274 -0.07124894 -0.68840593 -2.124721 0.33276856 -0.8566346
-2.3436668 0.3787248 -0.58992577 -0.542573 0.104418546 0.6703196 0.15288939 0.102623075
1.2887434 0.062369112 0.12688479 0.39246446 -1.217286 -0.3925312 -1.7518797 0.58993244
1.088166 0.026788775 0.32693884 -1.5360392 0.61350864 -1.5097055 -1.3342978 -0.80833375
0.29602808 -1.1797112 -1.0425818 1.0160618 -0.09107886 -1.1392924 0.34983617 0.20804544
0.6312408 0.09018023 0.70667326 -1.3467803 -1.7378054 0.7775442 0.06872451 -0.014681399

l3.bias f4 [7]
00000000: 9074 18bf fd72 2d3f 3197 c13e bb9b 6a3d
00000010: 75f2 153e f6ef 38be 8258 23be
-0.5955286 0.67753583 0.37810662 0.057277422 0.14643271 -0.18060288 -0.15951732
