data.pth (torch, 8170 bytes, 6 tensors)

l1.weight f4 [8, 101]
00000000: fd29 f23c 2a3c b53e fd45 d0be ede0 0fbf
00000010: f188 04bf 5c98 1e3e 2d88 953e 07f3 35bf
00000020: 60f7 16be 14b1 36be 5328 3bbf fcef 93bc
00000030: 317c 7bbe cba9 ba3e 102c e13e 572c 5cbe
00000040: ae84 393f bdf6 663f a390 d7bc b34c f5be
00000050: 2eb5 ab3e e5f2 82be e33a b9be 8b5e 05bf
00000060: 958f 673f f50f b33e a266 01bf 5a56 bfbd
00000070: e372 153f 6fa7 a9be 4c99 373e 146c ecbe
00000080: 3940 d43e c6ae 2cbe 1de2 933e 4b46 cdbe
00000090: 0563 18be 7e4a bfbe c19d 84be 6540 0fbd
000000a0: 7f2b b73e 73d6 7cbf 3894 ee3e aa14 c73e
000000b0: 61ac f03e ebec c53e 6551 813e 1534 c63e
000000c0: de5c 13be 0158 c33e 8876 47be 07fc 98be
000000d0: 477d 203f ad93 77be 7cd3 56bd 8f00 a93e
000000e0: 1332 133f b007 8bbd 64e0 f63e f8e1 3b3f
000000f0: f0a6 f13e 3dee 87be 38af 09be 9d93 753e
00000100: 3c05 14bd 4f9f cbbc 59c7 2e3f 512e e0be
00000110: 23dc c3be 1631 113d 0a4e b83e 678e 453e
00000120: 9308 febe 8979 8d3e fbcc 503f 5362 57bd
00000130: 97c3 633f 2e26 663f 2ed4 2bbd dfe0 463f
00000140: 46b3 0a3f d659 04bf 2314 debe 8536 b43e
00000150: 3d58 04bf 016b f8be b659 f93e 78e4 5cbc
00000160: 2b98 57be d88e 0b3f fb27 9ebe 895b 4b3d
00000170: 8d67 f03e f0d8 0a3d be46 5abe 2b79 943e
00000180: b3c2 afbd 4101 86be bcf1 5f3e 5485 b23e
00000190: 1fd3 a2bd 9f56 c5bd 30e4 b83d 6870 ce3e
000001a0: 8923 b73f 8f55 bd3e 6aa2 173e c721 603e
000001b0: 6d36 193f e71b 5b3e ab4a 353f 811a 033f
000001c0: 2098 33bb 4cc5 fbbe e25d b1be 1b1f 48bc
000001d0: 6a8c 3bbe 09fe b4be cf66 f63c fe25 2c3f
000001e0: c5c2 2bbe c68b 793e f8c8 813e 5d06 053f
000001f0: da2c 97be 3645 873e 15f0 8c3e 56a1 fdbe
00000200: 155d c13d f376 fb3e 31a5 a03d 0146 943e
00000210: 27cd 81be 091a bfbe 0f7c 643e 963b 09bd
00000220: ae05 603f 1569 b23f 93b3 7f3f 545f 08bf
00000230: d625 103f baa7 b13e ede6 a73d 9b0b 3dbe
00000240: 03d3 36bf 729d 43bf 69d8 033f 681c 483d
00000250: deff bebe f9bd 383e 31ca 9e3e 4707 bbbe
00000260: ce1a 6b3e 9cec 68bf 8a91 bf3d 6428 553e
00000270: 933d 673f 38af 003e 62a3 e63e 664e a83e
00000280: d650 063f 7918 00be 0c0c 203f d7c7 f33e
00000290: 7d23 c53e 9c7f cc3e dc47 ad3c 388a 393e
000002a0: bd41 a6be 9b03 e23e 841c ee3c 2a48 333e
000002b0: 6a3f d63d 8333 13bf 997f d93e 4957 093c
000002c0: 4d8c c03e 9a2b e4bd eb81 b73e 8024 c13b
000002d0: 5127 c6be 2a63 183d 2d20 22bf c4f7 d5bc
000002e0: 3177 483e c6b4 74bf 84cb 23bf 3a00 d3be
000002f0: 2f71 893d 7852 333e c63d 783e 08a0 11bf
00000300: 15de 423e be14 c2be fda6 a23e 9a17 b7be
00000310: c3ab f83e 5cdb 91bd 7e02 15bf d0ee 893d
00000320: b30c db3e 4586 023e e370 e73d 16cf 3cbe
00000330: a220 b3be 91f8 273e f950 243e 57b0 b3be
00000340: 3b5b 2bbc f4a9 393f 83e4 6fbe 4729 d73e
00000350: ca47 483f 1922 acbd 6a77 5c3f 4c68 b5bd
00000360: b0cf 9a3d fc97 493f 13cd ecbd 9060 55be
00000370: b5ca 26be e3f7 7d3e 07b0 70be fc9b 45be
00000380: a0d5 85bc 9e00 febd 15c0 3b3f 3415 8abe
00000390: 67c8 e2be 88fd 56bc d72f 353f 79e7 f03d
000003a0: 3e9e 983e 755c 35be 209e bf3c 3e0f 013e
000003b0: 0c30 4fbe ada0 353f 32f8 2dbf 7b18 453f
000003c0: f62f 763f f4e3 293f c73f 953e 66e2 893f
000003d0: eaa3 7abe ecab c8bc a04f 96be f290 e33e
000003e0: 25c1 f23d 1023 7abd 012f 473e 7544 0f3f
000003f0: 833d 1d3f 87e5 843d 71a5 00be fc05 e13e
0.029561037 0.35397464 -0.40678397 -0.56202585 -0.51771456 0.15487808 0.29205456 -0.71073955
-0.14742804 -0.17840987 -0.73108405 -0.01805877 -0.24559094 0.36457667 0.4397893 -0.2150129
0.7246808 0.9022024 -0.026314085 -0.4791008 0.33536667 -0.2557594 -0.3617774 -0.52097386
0.90453464 0.34973112 -0.5054723 -0.09342642 0.5837843 -0.33135554 0.17929572 -0.46176207
0.41455248 -0.16863546 0.28883448 -0.40092692 -0.14881523 -0.3736152 -0.25901607 -0.03497352
0.35775372 -0.98764724 0.46597457 0.38882953 0.47006515 0.38657317 0.25257412 0.3871161
-0.14390895 0.3815308 -0.1947881 -0.29879782 0.6269116 -0.24177428 -0.05244778 0.3300824
0.5749828 -0.06788576 0.4821807 0.73391676 0.47197676 -0.2654895 -0.13445747 0.23982091
-0.036137804 -0.024856238 0.6827293 -0.43785337 -0.38253888 0.035447203 0.3599704 0.19292603
-0.49615917 0.27631786 0.81562775 -0.052584004 0.8897032 0.8990201 -0.041950397 0.77686876
0.541798 -0.5169958 -0.43374738 0.35197845 -0.5169714 -0.48519138 0.48701257 -0.013482206
-0.21054141 0.5451484 -0.30889878 0.04964784 0.46954003 0.033898294 -0.21316049 0.28998694
-0.08582058 -0.26172832 0.21869558 0.34867346 -0.079504244 -0.09635662 0.09027898 0.40320134
1.430772 0.3697934 0.1480805 0.21887885 0.5984867 0.21397363 0.7081706 0.51212317
-0.0027403906 -0.49173963 -0.3464194 -0.012214447 -0.18315282 -0.35350063 0.03007832 0.6724547
-0.16773517 0.24369726 0.2534864 0.51962835 -0.29526407 0.2641999 0.27526918 -0.49537152
0.09441582 0.4911419 0.07844008 0.2895966 -0.2535183 -0.3732455 0.2231295 -0.03350409
0.87508667 1.3938318 0.99883384 -0.5327046 0.56307733 0.34698278 0.081983425 -0.18461458
-0.7141573 -0.7641212 0.5150209 0.048855215 -0.37304586 0.18041219 0.31013635 -0.3652899
0.22959444 -0.9098604 0.09353931 0.20816189 0.9032833 0.1256684 0.45046526 0.32872313
0.52467096 -0.12509336 0.6251838 0.47613403 0.38503638 0.39941108 0.02115243 0.18119133
-0.3247203 0.44143376 0.029066332 0.17507997 0.10461314 -0.57500476 0.42480162 0.008382627
0.3760704 -0.11141129 0.35841307 0.0058942437 -0.3870187 0.037203945 -0.63330346 -0.02611912
0.19576718 -0.9558834 -0.63982415 -0.4121111 0.06711041 0.17511928 0.24242315 -0.56884813
0.1903003 -0.3790645 0.31768027 -0.35760194 0.48568544 -0.071219176 -0.5820693 0.06735003
0.42783126 0.12746532 0.11300828 -0.18438372 -0.34985834 0.16403414 0.16046514 -0.35095474
-0.010458763 0.7252495 -0.23427014 0.4202368 0.7823454 -0.08404941 0.8611971 -0.08857784
0.075591445 0.78747535 -0.11562552 -0.20837617 -0.16288264 0.24801593 -0.23504649 -0.19297785
-0.016337216 -0.124024615 0.7333997 -0.26969302 -0.4429352 -0.01312197 0.7077612 0.117629
0.2980823 -0.17711051 0.02339083 0.1260347 -0.20233172 0.70948297 -0.6795684 0.7699048
0.9616693 0.66363454 0.2915022 1.0772216 -0.24476591 -0.024496041 -0.29357624 0.44446522
0.11853246 -0.061068594 0.19451524 0.5596383 0.61421984 0.06489091 -0.12563111 0.43949878

l1.bias f4 [8]
00000000: 3d56 043f 367b bb3f e6c9 333f bffb 423f
00000010: 3c2a 4c3f 051a 1e3f 2817 7d3f 01d0 883f
0.5169409 1.4646976 0.7022995 0.76165384 0.79751945 0.6175845 0.9886346 1.0688478

l2.weight f4 [8, 8]
00000000: 4205 44bf 5498 033f 3231 9abf 13b5 b43f
00000010: 0ac8 c73f 16fe c43e fe29 aebe 3dcb 433e
00000020: 32e7 c43f 16f8 b53e d7b8 28be 163c 853f
00000030: 4f50 91be 37e0 f43e b337 c83e b715 863e
00000040: 65a9 2fbf 2532 c13f d21c 4d3f 785c 713f
00000050: cb8c cebe 9749 c9bf 8919 b23e d290 723f
00000060: f278 5abf d48c 583f 14c5 3cbf a669 54bf
00000070: 55b0 883f 5f60 583f 202e ab3f 388d e7bd
00000080: 0ce9 17be df72 2a3d 04b5 9b3f 1078 913d
00000090: 91cb 293f 43ad cc3f ba43 96bf 577c 873f
000000a0: 34f0 233f e11d e13f 6c4f 4b3f 6a35 85bf
000000b0: 2bff 853f 096a 9e3f 0c0a 873d e642 a0bf
000000c0: f4a4 80bf 0775 82bd 090b 813f cd28 993f
000000d0: cf78 8d3f 5f91 043d f38d 72bc cf65 cdbf
000000e0: 704c 28bf fa65 6fbf efdf 52bf dc9e e23c
000000f0: 86f6 993e 8b94 d63e 3bea c63f 5c8c 273f
-0.7657052 0.5140431 -1.2046263 1.411776 1.5607922 0.38475102 -0.34016412 0.19120498
1.5383055 0.35540837 -0.16476761 1.0408962 -0.28381583 0.47827312 0.39104995 0.26188442
-0.6861785 1.5093428 0.801221 0.9428172 -0.40341792 -1.5725583 0.34785107 0.9475223
-0.853408 0.84589887 -0.7373822 -0.82973707 1.0678812 0.8452205 1.3373451 -0.11306232
-0.14834994 0.041613456 1.2164617 0.07102978 0.6632624 1.5990375 -1.1739419 1.058482
0.64038396 1.7587243 0.79418063 -1.0406926 1.0468496 1.2376109 0.06593713 -1.2520416
-1.005034 -0.063699774 1.0081493 1.1965576 1.1052493 0.0323652 -0.014804351 -1.6046695
-0.65741634 -0.9351498 -0.82372946 0.02766364 0.30070895 0.41910204 1.5540231 0.65448546

l2.bias f4 [8]
00000000: c642 e23d 2329 b0be 353f 8e3f 5efc 173f
00000010: d513 9b3e a0bd 083f 857c 943d 0838 3b3f
0.11047892 -0.34406385 1.1113039 0.59369457 0.30288568 0.53414345 0.07250313 0.7313237

l3.weight f4 [18, 8]
00000000: af78 dcbf 4e62 243e 442a bd3e 3658 cabf
00000010: 1b83 8abf 916f 6a3e 71a1 85be f61b 1e3f
00000020: 7a46 b2bf 36e3 83bf 2ca4 b83e e71c a5bf
00000030: 1a9a 8f3f 4379 f3be b1bd 97bf e0b8 68be
00000040: fab0 2e3e f130 81bf 590c d2bf f76d 9fbd
00000050: 95f3 ba3e ba4e 083e 587f f23e 2692 57bf
00000060: 4fcd 1d3f d8df 87be 9222 1abf 3c5c aebf
00000070: 66a0 86be d99c abbf 75be 333f f6c7 91be
00000080: 6f04 aa3d a314 58bf b99a 2ebf d128 243f
00000090: fa9b 76bf ee6e ff3d a12a 483e a5e7 14bf
000000a0: 2e95 e8bf 178f 433f aa45 1bbf d568 c6bf
000000b0: 90ff 603e 6f99 0ebf c54b d9be de32 32bf
000000c0: 340b 3f3f ea55 a7be db6b 733f b0c1 16c0
000000d0: 3e54 453c e033 15c0 a21d a0bf 022a 19bf
000000e0: 4a23 0ebf eb1f 70bf 5de0 fb3e cfbf d0bf
000000f0: e826 cbbd 9385 2ebe 272f 533f 6b5d 8fbe
00000100: ae38 113f 197e e6be a822 c63e 50cd 243b
00000110: e0ef 32bf 6b08 4ebe fa9e 0fc0 ddef a6bf
00000120: 1b1b 063e de3f 9abe bbc0 d3bf 0fa0 3b3e
00000130: 4956 dc3e 8e91 c73e bbb9 e3bf 5441 aebf
00000140: 7642 8dbf 546f fa3e d6ef e7bf 17de ef3d
00000150: 3743 81bf 8036 1a3f 8407 83bf 92ec d1bd
00000160: 39e2 d0bf d5ec 5f3c 3989 89bf 6917 babf
00000170: c145 af3e b25d 633f a08b babf 1d09 5fbf
00000180: 2806 bf3d 696a bb3e 2ca9 dcbf 63ed 02c0
00000190: eb20 733e 086b 163c 8980 d73e cf26 7ebe
000001a0: 1048 90bd 54da 94bf 85b4 00c0 180d 393f
000001b0: a923 573d f8a5 f23d 2a35 47bf 1986 6b3f
000001c0: 8b21 233f 3835 1ebf fa5e 1abf 9a3b e83d
000001d0: 9feb a6bf e21c 8dbf 4c6e cb3e 3718 de3e
000001e0: bf68 033f 90e9 703e 2682 bfbf bd1d 6d3e
000001f0: 83df 84bd 372b e7bf a19a 96bf 20c2 0f3f
00000200: d40f 15c0 1956 83bf ea80 bd3e 6bb7 233f
00000210: aad7 9fbe 556e 0f3f 60e9 96bf f6f9 d2be
00000220: 3d42 84bf d3e6 9fbf 15b2 093f 39da 5d3f
00000230: dbe5 86bf 15f1 d2bf daa6 9fbf f630 893f
-1.722433 0.16053125 0.3694631 -1.580817 -1.082126 0.22894122 -0.26099733 0.61761415
-1.3927758 -1.0303714 0.36062753 -1.2899445 1.1218903 -0.47553453 -1.1854764 -0.22726774
0.17059699 -1.0093061 -1.6410018 -0.07784646 0.36513963 0.13311282 0.4736278 -0.8420738
0.616414 -0.26537967 -0.60209 -1.3621898 -0.2629425 -1.3407241 0.7021249 -0.2847287
0.08301627 -0.8440649 -0.6820484 0.6412478 -0.9633175 0.1247233 0.19547512 -0.5816596
-1.8170526 0.7639021 -0.60653174 -1.5500742 0.2197249 -0.5570287 -0.4244062 -0.6960887
0.7462647 -0.32682735 0.9508645 -2.3555717 0.012044011 -2.3312912 -1.2509043 -0.59829724
-0.55522597 -0.937987 0.49194613 -1.6308535 -0.0991953 -0.17043142 0.82493824 -0.2800096
0.5672711 -0.4501808 0.38698316 0.002514679 -0.6989727 -0.20120399 -2.2440782 -1.304195
0.13096277 -0.30126852 -1.6543192 0.18322776 0.4303458 0.38978237 -1.7791055 -1.3613687
-1.1035907 0.48913062 -1.8120067 0.11712282 -1.0098637 0.6023941 -1.0236669 -0.102502
-1.6319038 0.013667305 -1.0745002 -1.4538394 0.34232906 0.8881484 -1.457386 -0.8712328
0.09327346 0.36604622 -1.7239127 -2.045739 0.23743026 0.009180792 0.42090252 -0.24819492
-0.07044995 -1.1629128 -2.011018 0.72285604 0.052524243 0.11848062 -0.77815497 0.9200149
0.6372306 -0.61799955 -0.6030117 0.11339493 -1.3040656 -1.1024439 0.39732587 0.4337785
0.51331705 0.23526597 -1.4961593 0.23155876 -0.06487944 -1.8060063 -1.1765939 0.56155586
-2.329091 -1.026065 0.37012416 0.6395175 -0.31219226 0.5602773 -1.178997 -0.4120633
-1.0332714 -1.2492317 0.53787357 0.86661106 -1.0538896 -1.6479822 -1.2472794 1.0718067

l3.bias f4 [18]
00000000: b2e6 6f3e 2118 2f3e d6ee 1bbf a0d2 b5be
00000010: 9b72 53be 4798 49be 65d2 7ebd c885 263d
00000020: 016d 183e be6a 353e 4fcb 2d3e 16ed 3fbe
00000030: 1ddf 9f3c 40ef 993d dfd5 44bd fb87 d83d
00000040: 20f8 013e 2db1 623e
0.23427847 0.17099048 -0.6091131 -0.35512257 -0.20649187 -0.19686995 -0.062212367 0.040654927
0.14885332 0.177165 0.16972087 -0.18742785 0.019515568 0.075163364 -0.048055526 0.10572811
0.12692308 0.221379
