data.pth (torch, 6890 bytes, 6 tensors)

l1.weight f4 [8, 81]
000000 c6 42 a9 3e 51 5f 09 be a2 45 1f bf db 9e f6 be
       0.33058757 -0.13415267 -0.62215626 -0.48168072
000010 f4 ce 7e 3d 73 02 2e be f7 10 e1 bd 36 a5 13 bf
       0.062209085 -0.16993122 -0.10989564 -0.57673967
000020 1c 68 0a be 21 8b 20 bf ee 64 dd bd 53 05 4d 3e
       -0.13516277 -0.62712294 -0.108102664 0.20021562
000030 02 2f 89 be 70 b7 0a 3e 0d bb 7d be c3 74 0e 3f
       -0.26793677 0.13546538 -0.24778385 0.55646914
000040 74 6c 38 3f c1 78 bf 3e 01 e3 b1 bc aa 27 be 3e
       0.72040486 0.37396815 -0.02171469 0.37139636
000050 62 9d 1a bf 14 bf 79 3c d6 0e b9 3e 38 bd c8 3e
       -0.603964 0.0152433105 0.3614413 0.39206862
000060 00 3c 45 3f c3 7f 26 bc 02 2e 12 3f 85 54 07 bf
       0.7704468 -0.010162297 0.5710145 -0.5286334
000070 76 98 13 3e 39 01 65 bd 04 d5 99 3c f6 1e 3f bd
       0.14413628 -0.05590937 0.018778332 -0.046660386
000080 e5 06 01 3b 5b 77 5e be 83 21 7d be 17 57 10 3f
       0.0019687947 -0.21725218 -0.24719815 0.5638289
000090 4d 7f 15 3f 78 85 36 3f 10 13 da be bd ce cb be
       0.5839737 0.7129741 -0.4259267 -0.39806166
0000a0 4d 10 bb 3e bf 46 3f 3e ea a5 28 be fb 45 11 3f
       0.36535874 0.18679331 -0.16469541 0.56747407
0000b0 e4 81 8b bd 8e 6e 2a 3f f9 db a9 be 9e b1 31 3e
       -0.06811884 0.66574943 -0.33175638 0.17352912
0000c0 d2 4f d8 3d 5e 6f a8 be 73 fa f4 3e 69 04 92 be
       0.105620995 -0.32897466 0.47847328 -0.2851899
0000d0 76 30 63 3f cc 94 c5 3d 77 55 55 be b4 f4 9d bd
       0.8874582 0.096475214 -0.20833384 -0.07712689
0000e0 10 b8 10 be b9 1d 94 bc 43 2e 25 3f 28 82 d3 bd
       -0.14132714 -0.01808058 0.64523715 -0.1032756
0000f0 13 0a 2b 3e b4 7e de 3e 6d 67 de bd 34 c5 9a be
       0.16703062 0.43456042 -0.10859571 -0.3022858
000100 ec 7d ee 3e 40 79 b2 ba 8d b1 2b 3e aa 88 05 3f
       0.46580446 -0.0013616458 0.16766949 0.5216166
000110 5b 01 c0 3e 60 ac d8 3e bd 36 a4 3d 3e 7f b9 3c
       0.37501034 0.42319012 0.08018253 0.022643682
000120 49 22 e6 3e e1 a2 a1 be f8 28 a8 3e 50 d0 85 3e
       0.44948032 -0.3156958 0.32843757 0.26135492
000130 fb 4a 50 3e f6 63 2b 3f 38 45 0a 3f 52 3d 49 be
       0.20341103 0.66949403 0.5401187 -0.19652298
000140 41 19 9b bd 34 a8 dc 3e 0f 50 cf 3e 51 8f 0b 3f
       -0.07573176 0.4309708 0.40490767 0.5451556
000150 fe 4d 06 3f 0b 2e 83 3e 91 2a 7b be 9b fa b5 be
       0.52462757 0.25621065 -0.24527957 -0.3554276
000160 ed b5 bf be 2e b4 c4 be 0b 2e be bd e0 92 b5 3b
       -0.37443486 -0.38418716 -0.09286126 0.0055411905
000170 8b 96 a0 3e 21 1a a2 be b3 97 55 3e b8 b2 4e 3e
       0.31364855 -0.3166056 0.2085865 0.20185363
000180 06 06 19 3f ec 16 5e 3f 6e 74 ab be 52 14 b9 3e
       0.59774816 0.86753726 -0.33487266 0.36148316
000190 b0 90 1a 3f 2f a3 3c 3f 7d aa 92 be cf 20 95 3e
       0.60377026 0.736865 -0.28645697 0.29126593
0001a0 e4 0c 96 be 19 57 09 3d 20 b1 dc 3e a9 66 9b 3c
       -0.2930671 0.03353033 0.43103886 0.01896985
0001b0 7d 2d c7 3e 8f 38 5e be b5 7e 9c be 3c 84 83 bd
       0.38901892 -0.21701263 -0.3056542 -0.06421706
0001c0 76 57 81 3e ae 0d 15 bf 1c 7e 66 bc 2d bb 17 bf
       0.2526204 -0.58224 -0.014068153 -0.5926998
0001d0 8a 4b 87 be a7 40 3e 3d 6e ce 64 3e 8b 5d 30 3f
       -0.2642482 0.046448376 0.22344372 0.68892735
0001e0 3d fa 32 3f ac bb e8 3d 91 25 5e 3e 7f 56 db 3e
       0.69913083 0.113639206 0.21694018 0.4283943
0001f0 28 26 1b bb 1e ed 62 be 31 98 ef 3e ef 32 0e 3f
       -0.0023673866 -0.22160766 0.467958 0.5554647
000200 89 72 56 3e e0 cc d2 3e 0d e5 68 3e d8 fb 8a 3e
       0.20942129 0.41171932 0.22743626 0.27145267
000210 dd aa c5 3e 02 79 0b 3d a4 8a df bb 47 2d 00 bf
       0.3860692 0.03405095 -0.006821947 -0.5006909
000220 6f fd a9 be 44 79 2d 3f 7b 86 9b 3e 07 f4 94 be
       -0.33201167 0.6776316 0.30376038 -0.29092428
000230 af f4 ea 3e bb 60 01 3f 15 0b 38 be d7 a6 9d be
       0.45889804 0.50538224 -0.17972977 -0.3079135
000240 78 c7 a5 3e 6b 6e 07 bf 10 fe 21 bc 2d 65 a4 be
       0.32378745 -0.5290286 -0.009887233 -0.3210844
000250 28 72 92 3e 7c 3c 4f 3f ac c6 11 3f e2 fb fd 3e
       0.2860272 0.80951667 0.56943774 0.49606234
000260 bf 2e 61 be 8a 9a da 3e b5 ec 29 3f af 4c 1d 3e
       -0.21990488 0.4269603 0.6637681 0.15361284
000270 b2 e5 d5 3e c3 32 74 be 7b 37 32 be c2 b1 8e 3d
       0.41776806 -0.23847489 -0.17403977 0.06967498
000280 fe 24 07 3f 11 51 75 3e b2 e1 15 3f 64 66 bf 3e
       0.5279082 0.23956706 0.5854751 0.37382805
000290 0f 94 0f 3e 1a 41 42 bf dc ad 41 be 96 8d dd bd
       0.14021324 -0.7588059 -0.18913978 -0.10818021
0002a0 ef 48 47 3e b9 72 3a bd f8 4a cd 3e 4b 1b d2 bd
       0.19461416 -0.045519564 0.4009626 -0.10259112
0002b0 12 94 7d bd 8d 21 53 be 06 fa 4c 3f 81 74 4d 3c
       -0.06190879 -0.20618267 0.80069005 0.012539984
0002c0 2b 41 c6 be eb 84 8e bd 4d 68 f4 3e f0 21 49 be
       -0.38721594 -0.06958946 0.47735825 -0.19641852
0002d0 e3 ef ee bd b8 82 88 3e 1c bf e0 3d 9b 86 a2 3e
       -0.116668485 0.2666223 0.10973951 0.3174332
0002e0 bd 40 d0 bd f3 48 e3 be d5 c5 87 3d f8 8c f7 bd
       -0.10168598 -0.44391593 0.0662953 -0.120874345
0002f0 26 9b d5 b7 7c ba 4e be ee 29 68 bd ef 91 6e 3e
       -2.5463825e-05 -0.20188326 -0.056680612 0.23297857
000300 19 e0 9c 3d 04 cb e2 bd 93 b4 15 3f 7c 48 b4 3e
       0.07659931 -0.110738784 0.5847866 0.3521155
000310 b4 41 a2 3e 6d 81 9a 3e 00 15 e5 3c aa 29 a9 bc
       0.31690753 0.3017687 0.027964115 -0.02064975
000320 ed ac 1e 3e 1c 96 c5 3e 76 98 67 3e 18 a8 f6 bc
       0.15495653 0.38591087 0.22616753 -0.03010945
000330 e5 37 eb bc 06 39 fd 3e b3 55 11 3f 89 c4 28 3e
       -0.028713176 0.49457568 0.5677139 0.16481222
000340 e7 68 c5 3e 54 40 5a 3e ff 5a 12 3f 75 19 ac be
       0.38556597 0.21313602 0.571701 -0.33613172
000350 05 0e 36 be 1f 50 ba bd 63 b0 e3 be 2c 64 81 3d
       -0.17778786 -0.09097313 -0.4447051 0.063179344
000360 15 23 bc 3c 5b b3 94 bd 3e ba 2e bd b1 0d 95 3b
       0.022965947 -0.07260772 -0.042658083 0.0045487513
000370 f6 f7 d3 be 8b dc 1a be a6 87 85 be 48 b4 e4 be
       -0.41400117 -0.15123193 -0.26080054 -0.44668794
000380 9a df d7 3e 53 7a eb be 11 0c 0a bf 38 60 20 bd
       0.42162782 -0.45991763 -0.5392466 -0.03915426
000390 38 02 f5 bc 09 72 b9 bc d6 af 74 3f 62 e0 f2 3e
       -0.029908285 -0.022637384 0.95580804 0.47436816
0003a0 07 35 4c be 0c a2 90 3e 6e e3 02 bf d1 f7 e5 3e
       -0.19942103 0.28248632 -0.5112828 0.4491563
0003b0 cd 05 8b 3e fc 2d 09 be 65 32 c8 bd c3 6e e7 3d
       0.27152863 -0.13396448 -0.09775237 0.11300423
0003c0 e9 0e d6 be 15 84 d6 3c f9 5f 38 3f 47 7d d3 be
       -0.4180825 0.026186028 0.7202144 -0.41306517
0003d0 11 18 99 bd bc 0b d8 be bb d7 85 bd ba 22 4d 3f
       -0.074752934 -0.42196453 -0.06535288 0.80131114
0003e0 93 ae 24 3e d3 19 1c 3f 67 1d e1 3e 64 af fa 3e
       0.1608222 0.60976905 0.43967745 0.48961937
0003f0 ac 9b f2 3e 49 51 e0 bd f8 d1 1f 3c 89 a7 b8 be
       0.47384393 -0.10953004 0.00975465 -0.3606532

l1.bias f4 [8]
000000 31 4b 81 3e ed 95 17 3f 48 a8 a5 3f d5 b3 f8 3e
       0.2525268 0.59213144 1.294198 0.485747
000010 f9 d4 a9 3e 36 5f 3c 38 e1 8d 72 3f 3b fc 43 3f
       0.33170298 4.4911365e-05 0.9474774 0.7655675

l2.weight f4 [8, 8]
000000 6c f7 fe 3e 32 48 bb be a0 e2 4d 3f 80 68 ac 3f
       0.49798143 -0.36578518 0.8042393 1.3469391
000010 42 8f 38 3e 97 d2 af 3f a8 db af 3e d6 4a 88 bf
       0.18023399 1.3736142 0.34347272 -1.0647838
000020 8b 90 07 bf 19 4b 4f be e2 c6 b8 3f b6 10 c1 3d
       -0.5295493 -0.20243491 1.4435694 0.094270155
000030 6b df 2b bf 10 06 9a bf f5 fa 26 3f cc 63 33 3f
       -0.67137784 -1.20331 0.6522668 0.7007415
000040 3a 05 8e bf 43 5b b3 3f bc c0 fd be 44 68 8f 3d
       -1.1095345 1.4012226 -0.49561107 0.07002309
000050 57 64 cc 3e d9 ee 2e 3e 35 38 42 3f b3 c4 67 3f
       0.39920303 0.170833 0.75867015 0.90534514
000060 b2 1b 8c 3e 86 6d 44 3f 40 0c 1c 3e c5 91 3d bf
       0.2736488 0.7672962 0.15239048 -0.7405055
000070 c3 a9 74 3f cc 4b b0 bf c6 ee 5f 3f 63 45 a8 3f
       0.95571536 -1.3773131 0.87473714 1.3146175
000080 79 fe e0 be c9 db ac 3e 8d 8a b5 3f 5d 54 7c 3e
       -0.43944147 0.33761433 1.4182907 0.24641557
000090 3e 6a ca be ca cd a8 3f de 69 3c 3e e5 bc e9 bd
       -0.3953418 1.3187802 0.1839976 -0.11412982
0000a0 c0 de 02 3f 1c a7 a9 3f 58 8b 98 3f e5 25 6e bf
       0.5112114 1.3254123 1.1917524 -0.9302657
0000b0 14 22 6e 3f 69 39 71 3f 98 d7 ce be 4d 20 0d bf
       0.9302075 0.94228226 -0.4039886 -0.5512741
0000c0 e3 d5 a7 3f 64 0a 95 3e 1d df 87 bf 01 d0 06 3f
       1.3112148 0.2910949 -1.0614964 0.5266114
0000d0 01 3a 6c 3f 82 66 65 3e 2f d8 38 3f f7 e1 98 bc
       0.92276007 0.22402385 0.7220487 -0.018662436
0000e0 74 a4 6e be 01 fc 56 bc 44 95 0b 3e e2 8e a3 3f
       -0.23304921 -0.013121606 0.13631159 1.2777979
0000f0 e4 8b 3e bf 58 c8 2b 3e 88 84 a6 3f a0 cb 9d be
       -0.74432206 0.16775644 1.3009195 -0.30819416

l2.bias f4 [8]
000000 16 14 de 3e ee 01 44 3f af e8 0e be 0b 80 95 3c
       0.433747 0.76565444 -0.13955949 0.018249532
000010 66 5c 4f 3f 6b 13 57 3e a0 00 b4 3d ee ce a2 3e
       0.81000364 0.21003501 0.08789182 0.317985

l3.weight f4 [12, 8]
000000 30 b8 9c bf 60 36 87 3e 41 10 ed 3e b4 17 c4 3d
       -1.224371 0.26408672 0.46301463 0.095748335
000010 14 0d a9 bd cd 01 bf bf 9b 20 b2 be 95 1d 96 3e
       -0.082544476 -1.4922425 -0.347905 0.29319444
000020 c4 c4 c0 be a7 75 c4 bf 85 d5 ac 3d 65 40 b2 bd
       -0.3765012 -1.5348405 0.08439163 -0.087036885
000030 5e 41 49 3e 83 c5 03 3f a5 c0 df bd b3 09 95 bf
       0.19653842 0.51473254 -0.10925416 -1.1643585
000040 78 60 4a bf bf ae 6f bf c9 af 9e 3e 07 36 97 bd
       -0.7905345 -0.93626016 0.30993488 -0.07383352
000050 80 df 6a bf 39 9c 37 3d 40 8c 51 bd 2a 27 a2 3e
       -0.91747284 0.04482672 -0.051159143 0.31670505
000060 b7 7e 94 bf 93 49 7c bf 24 8d ce 3e 81 19 07 3f
       -1.160117 -0.98549765 0.40342057 0.5277329
000070 01 0e 94 bf 2a 12 33 bf 61 68 a7 3d c3 12 c8 bf
       -1.1566774 -0.6994959 0.081742056 -1.5630726
000080 35 52 1b 3f 6d 8d 89 bf 8d 38 84 bf f9 58 a7 bf
       0.6067231 -1.0746285 -1.0329758 -1.3074027
000090 a5 23 f8 be fc c0 24 3f 1d 29 c7 3e 16 b1 43 bf
       -0.48464695 0.6435697 0.38898554 -0.76442087
0000a0 af eb 9a be 7f f3 9d bf 70 fc c9 bf 0e 3b ce 3e
       -0.30257937 -1.2339934 -1.5780163 0.4027943
0000b0 5e 9f 42 bf 8c b8 56 bc ae 97 23 3f 95 b6 cc bf
       -0.76024425 -0.013105523 0.6390332 -1.599322
0000c0 54 0b 10 3f fe 57 56 bf a7 16 70 bf fc e5 54 bf
       0.56267285 -0.83728015 -0.93784565 -0.8316343
0000d0 8a 12 29 bf 08 13 94 bf f6 da 13 3f 2c 28 29 3f
       -0.66043913 -1.1568308 0.5775598 0.6607692
0000e0 a6 52 e4 be c7 bb 9a 3f 60 ee c6 be db f4 5b be
       -0.44594306 1.2088555 -0.3885374 -0.21480124
0000f0 b4 c5 14 3f 4b 25 8d be 84 b3 39 bf cb 19 28 3a
       0.5811417 -0.27567515 -0.72539544 0.0006412535
000100 b2 37 8f 3f 3c cc 04 3f af 1e ae bf dd 63 0d c0
       1.1188872 0.51874137 -1.3603114 -2.2092202
000110 86 95 30 3f ca 42 73 bf 87 52 82 bf 4e a2 3a 3f
       0.68978155 -0.9502379 -1.0181435 0.7290391
000120 11 ac 0f 3e f7 a6 90 bf 96 30 17 3f 84 cc 4a bf
       0.14030482 -1.1300954 0.5905851 -0.79218316
000130 36 e7 a7 3e 80 34 7e bf 50 7c bc be 6d eb f8 3e
       0.32793587 -0.9929886 -0.36813593 0.48617116
000140 7d eb 9c 3e 1a 7c ae be f8 7a 53 bf a1 3a 88 bf
       0.30648413 -0.34079057 -0.8260951 -1.0642892
000150 89 a9 3f 3f e6 86 57 3f 1b 61 83 bf 55 97 9b bf
       0.74868065 0.84190214 -1.0264009 -1.2155558
000160 fd a5 98 bf 3f d6 ea 3d 88 3c 0a 3f 2b 85 97 3e
       -1.1925656 0.114666454 0.53998613 0.29593787
000170 7b 97 ca be a0 7f 49 3e 49 22 8c bf 2c fe 8e bf
       -0.39568695 0.19677591 -1.0947963 -1.1171317

l3.bias f4 [12]
000000 20 b8 0f bf bf f9 55 be ff 14 49 bf 6b e2 bb be
       -0.5614033 -0.20896052 -0.7854766 -0.3669618
000010 88 02 16 be 2a 8f f4 3d 95 2d 82 be 2e 9c ee 3e
       -0.14649403 0.11941369 -0.254254 0.4660353
000020 50 91 cb bc c3 bb 4e 3d fe 3c 22 3e 08 70 31 3c
       -0.024849564 0.050472032 0.15843579 0.010829933
