data.pth (torch, 8426 bytes, 6 tensors)

l1.weight f4 [8, 105]
0	0x3e2d6a44	0.16935068
1	0xbd63af76	-0.055587254
2	0xbf641c4f	-0.89105695
3	0xbf28d817	-0.65954727
4	0xbf9b5f55	-1.2138468
5	0xbc8a89db	-0.016911438
6	0x3d77fd1a	0.06054411
7	0xbf094761	-0.5362454
8	0xbf14d192	-0.5813228
9	0xbebbe535	-0.3669831
10	0xbeeeab01	-0.4661484
11	0x3cf2e70c	0.029651187
12	0xbf489335	-0.7834962
13	0x3e0253fe	0.12727353
14	0x3f636051	0.8881884
15	0xbd0fa366	-0.03506794
16	0xbec064d1	-0.37576917
17	0xbe1c467c	-0.15261263
18	0xbeb61a47	-0.35566923
19	0x3f18338b	0.5945365
20	0xbedb6d60	-0.42856884
21	0x3e76623a	0.24060908
22	0xbebd8900	-0.37018585
23	0xbf445d7b	-0.7670514
24	0xbe852f61	-0.2601271
25	0x3f2f2c7d	0.6842726
26	0x3e8931b5	0.26795736
27	0xbf0bbfa4	-0.54589295
28	0x3d506a6e	0.05088275
29	0x3f88698d	1.0657212
30	0xbf262f7c	-0.64916205
31	0x3ef8cdac	0.48594415
32	0x3e944a4c	0.28962934
33	0x3df5b6e8	0.11997777
34	0xbd6d71bb	-0.05796979
35	0x39273ee6	0.00015949793
36	0xbe10d932	-0.14145353
37	0xbf068cb5	-0.5255845
38	0xbdccd44b	-0.10001429
39	0xbed4dab7	-0.41573116
40	0xbf242c75	-0.64130336
41	0x3caf3ac8	0.021390334
42	0x3f0338df	0.51258653
43	0x3f7c1198	0.98464346
44	0x3d2d3afa	0.042292573
45	0xbeb7c857	-0.35895035
46	0xbee33880	-0.44379044
47	0xbe6d7279	-0.23188199
48	0xbe6b7f3c	-0.22997755
49	0xbb8510ef	-0.0040608565
50	0xbdb141f8	-0.08655161
51	0x3ef2c815	0.47418275
52	0xbf314fb4	-0.6926224
53	0x3ee2e32a	0.44313937
54	0xbeb34e8b	-0.3502086
55	0xbeda29a8	-0.42609906
56	0x3eacd827	0.3375866
57	0x3f0d191c	0.5511644
58	0x3e8dba48	0.27681184
59	0xbd8d6465	-0.06903914
60	0xbde3b336	-0.11118166
61	0xbd4427e1	-0.047889594
62	0x3f462b8d	0.77410203
63	0x3d2e926e	0.042620115
64	0x3e48411c	0.19556087
65	0xbee42a62	-0.44563586
66	0xbf1dede3	-0.6169111
67	0xbd8df2b4	-0.069310576
68	0x3f192abe	0.59830844
69	0x3f786e78	0.9704356
70	0xbf00a40e	-0.5025033
71	0xbf3bdfee	-0.73388565
72	0x3d85980b	0.065231405
73	0x3dcbaae6	0.09944706
74	0xbdd170b5	-0.10226575
75	0xbef1a4d6	-0.47196072
76	0x3f5ab021	0.85425
77	0x3f49a239	0.7876316
78	0x3eb907b6	0.36138695
79	0xbe5192ab	-0.20466106
80	0x3f3b861e	0.7325152
81	0x3f375dc9	0.7162748
82	0x3bf03d40	0.0073315203
83	0xbd36d9a0	-0.044641137
84	0xbd9e8bd4	-0.07741514
85	0x3faec021	1.3652383
86	0xbee96219	-0.45582655
87	0x3eae181e	0.34002775
88	0x3fbb15fa	1.4616082
89	0xbf06e55a	-0.5269371
90	0xbe1ccb23	-0.15311866
91	0x3f375920	0.7162037
92	0x3eb04158	0.34424853
93	0x3e664f89	0.22491278
94	0xbf07f60a	-0.531098
95	0xbe9432c3	-0.28944978
96	0x3ddafbbc	0.10692546
97	0x3e8c59a7	0.2741215
98	0xbf28a99e	-0.65883815
99	0x3f4264cd	0.7593506
100	0xbe61c82a	-0.22049013
101	0xbf2d425f	-0.676794
102	0xbef6a09d	-0.48169413
103	0xbee3b4be	-0.44473833
104	0x3f07bc69	0.53021866
105	0x3f066386	0.5249561
106	0x3f0a4505	0.54011565
107	0x3f45a369	0.7720247
108	0x3f5e70ad	0.8689068
109	0x3f883763	1.0641903
110	0x3e86c948	0.2632544
111	0x3f069451	0.5257006
112	0xbe9f1296	-0.31068867
113	0x3f49d056	0.7883352
114	0x3f5d77fa	0.86511195
115	0xbeac03f0	-0.33596754
116	0x3b0a0e40	0.0021065623
117	0x3f321d83	0.6957628
118	0xbe4d5bad	-0.20054503
119	0xbece01ab	-0.40235648
120	0xbd68f97c	-0.05687855
121	0x3f10c9eb	0.565581
122	0x3eb6fad8	0.35738254
123	0xbf75d0e8	-0.9602189
124	0xbec9d8fd	-0.3942336
125	0xba0e6336	-0.00054316537
126	0x3f463cf7	0.77436775
127	0x3f6a8aca	0.91618025
128	0x3f87a0cd	1.0595948
129	0xbd87b6e3	-0.0662668
130	0xbf13f38d	-0.57793504
131	0x3f725474	0.94660115
132	0xbedae9e2	-0.42756563
133	0xbcd95cf8	-0.026533589
134	0xbecf9b5d	-0.4054822
135	0x3ea4faae	0.32222503
136	0xbe1511d7	-0.14557587
137	0xbe2902fa	-0.16505042
138	0xbe087446	-0.13325605
139	0x3daea77f	0.08528041
140	0x3d425ae7	0.047449972
141	0x3ef30f4b	0.47472605
142	0x3f87b274	1.0601335
143	0x3f99c56e	1.2013376
144	0x3f91ba6f	1.138502
145	0x3f55f550	0.8357744
146	0x3f0a7ad1	0.5409365
147	0x3eba04cb	0.36331782
148	0xbeb34ca2	-0.35019404
149	0xbe48e32f	-0.19617914
150	0x3e9bb0b5	0.30408254
151	0x3e9fc0e7	0.3120186
152	0x3cd7e7b8	0.02635561
153	0x3f217977	0.63075966
154	0xbe22392f	-0.15842126
155	0x3cb33f4e	0.021880772
156	0x3c3d97e3	0.011571857
157	0x3ee6202d	0.44946423
158	0xbe7e0cc6	-0.2480956
159	0x3f585bdb	0.8451516
160	0x3ef76702	0.48320776
161	0xbd62230f	-0.055209216
162	0xbec57dce	-0.38572544
163	0x3f759bcf	0.9594087
164	0xbea0b499	-0.31387785
165	0xbe6e5d83	-0.2327786
166	0x3f318972	0.6935035
167	0xbf209ae0	-0.6273632
168	0x3d92894b	0.07155093
169	0x3eb7eed1	0.3592439
170	0xbea7b889	-0.32757977
171	0xbdf75284	-0.120762855
172	0xbcc49d7f	-0.024000881
173	0xbd779969	-0.060449038
174	0xbf15154a	-0.5823561
175	0xbe965474	-0.29361308
176	0xbe81f625	-0.25383106
177	0x3c0736f8	0.008252852
178	0x3f2b08fc	0.66810584
179	0x3f06f9b1	0.5272475
180	0x3e4da494	0.20082313
181	0xbf350fcc	-0.7072723
182	0xbe0e915a	-0.13922635
183	0xbe20617e	-0.1566219
184	0x3e9c907b	0.3057898
185	0x3ccfdf95	0.025375167
186	0xbf382086	-0.71924627
187	0xbd74297f	-0.059609886
188	0x3e69df8a	0.2283918
189	0xbe5e5a02	-0.21714023
190	0xbe92416a	-0.28565532
191	0x3d99a9ca	0.07503088
192	0x3e63e4db	0.2225527
193	0xbf403778	-0.7508464
194	0xbee191e7	-0.44056627
195	0x3f18098d	0.59389573
196	0xbd3efc86	-0.046627544
197	0xbe06ce18	-0.13164556
198	0x3d620da6	0.055188797
199	0x3e878c1f	0.2647409
200	0x3eae3860	0.34027386
201	0xbd9d1871	-0.076706775
202	0x3ec945d9	0.39311102
203	0x3ee6ef97	0.45104668
204	0x3c78fbed	0.015196783
205	0x3ed94893	0.42438182
206	0x3f6300a1	0.88672835
207	0x3f11f55e	0.57015026
208	0xbe17db94	-0.14829856
209	0x3e5be412	0.2147372
210	0x3e1f0e8c	0.15532893
211	0xbeb2da78	-0.34932303
212	0x3e82e128	0.25562406
213	0x3f77e9ab	0.96840924
214	0xbf050ccd	-0.5197266
215	0xbe7185d6	-0.2358621
216	0xbe72e000	-0.23718262
217	0xbe91e091	-0.28491643
218	0xbf218ea1	-0.6310826
219	0x3e0d3665	0.13790281
220	0xbe8d46a6	-0.27592963
221	0xbdaf401c	-0.0855715
222	0xbf0dcb84	-0.55388665
223	0xbd23829a	-0.039919473
224	0x3f660c20	0.8986225
225	0xbee74b41	-0.45174602
226	0xbe73ae01	-0.23796846
227	0xbe5637b2	-0.20919684
228	0x3e7c82de	0.24659297
229	0xbf25bfd4	-0.6474583
230	0xbde0705f	-0.10958933
231	0x3d627a63	0.0552925
232	0x3ea73fc3	0.32665834
233	0x3f2d7e0b	0.6777045
234	0x3dbb7e8c	0.09154996
235	0x3eb193a9	0.34682968
236	0xbdc7f618	-0.097637355
237	0x3f895ec3	1.0732044
238	0x3d95f363	0.07321813
239	0x3f2e8e50	0.681859
240	0xbdb69193	-0.08914485
241	0x3ec69a26	0.3878948
242	0xbe6a2e71	-0.22869278
243	0x3e897cff	0.26853177
244	0xbd388129	-0.04504505
245	0xbc1d0c6c	-0.009585481
246	0xbe2ff837	-0.1718453
247	0xbd9d3f9e	-0.0767815
248	0xbf39dfe2	-0.72607243
249	0x3d868770	0.065688014
250	0xbf0ebe81	-0.55759436
251	0x3e9e4d66	0.30918425
252	0x3e10a983	0.14127164
253	0x3f87e043	1.0615314
254	0xbe34caa5	-0.17655428
255	0xbf04fa99	-0.5194488

l1.bias f4 [8]
0	0x3fa8ad5a	1.3177903
1	0x3f403473	0.7508003
2	0x3f8c5996	1.096484
3	0x3ebc4307	0.36769888
4	0x3f12f382	0.57402813
5	0x3fbff939	1.4997932
6	0x3fb03890	1.3767262
7	0x3f631fff	0.887207

l2.weight f4 [8, 8]
0	0xbeb4a3e2	-0.35281283
1	0xbdbc6c48	-0.092003405
2	0x3e4227ea	0.18960539
3	0xbea88818	-0.3291633
4	0x3dd435f0	0.1036185
5	0x39f3d000	0.00046503544
6	0xbe13be7d	-0.14428134
7	0xbeacca2b	-0.33747992
8	0x40011acd	2.0172608
9	0xbeee1dc1	-0.46507075
10	0xbe92d37a	-0.2867697
11	0xbf64e55a	-0.8941246
12	0x3fcbfa45	1.5935751
13	0x3fa75298	1.3072081
14	0xbefdaa61	-0.4954405
15	0xbf454ed7	-0.77073425
16	0x3f471691	0.7776881
17	0xbcea07b7	-0.028568132
18	0x40066721	2.1000445
19	0xbf8ad749	-1.084695
20	0xbe80c60a	-0.25151092
21	0x3e2f1fb3	0.17101936
22	0x400cfa94	2.202794
23	0x3f9a2143	1.2041401
24	0x3d62fd08	0.05541709
25	0xbe532ff2	-0.20623758
26	0xbe6fa2a9	-0.23401894
27	0xbdee879e	-0.11646961
28	0xbe1d9ffa	-0.15393057
29	0xbd918d5c	-0.0710704
30	0xbe3af18d	-0.18256207
31	0xbea8d0dc	-0.32971847
32	0xbf8f92ab	-1.1216635
33	0x3fa272a0	1.2691231
34	0xbe00e9cb	-0.12589185
35	0x3e88b5a7	0.2670109
36	0xbead7be0	-0.33883572
37	0x3fa5170f	1.2897662
38	0x3ff61928	1.9226427
39	0xbf6d21e0	-0.92629814
40	0xbf421d2d	-0.7582577
41	0x4012b4a9	2.2922766
42	0xbe603d46	-0.21898374
43	0xbefd43ab	-0.4946569
44	0x3f604260	0.8760128
45	0x3fbe9b5f	1.4891165
46	0xbf260d3d	-0.6486395
47	0x3f64eafb	0.8942105
48	0x3f819e14	1.0126367
49	0xbf1b5f76	-0.60692537
50	0xbfbbbe70	-1.4667492
51	0x3fdd02ef	1.726652
52	0x3feffd0e	1.8749101
53	0x3e1c1ab6	0.15244564
54	0x3f9be307	1.2178658
55	0x3da9e424	0.082954675
56	0x3f97097d	1.179977
57	0x3eb71a13	0.3576208
58	0xbf46e662	-0.77695286
59	0x3e257a98	0.16160047
60	0xbf607da1	-0.87691694
61	0x3fe0504c	1.7524505
62	0x3f1bb528	0.608233
63	0xbfc8fe54	-1.5702615

l2.bias f4 [8]
0	0xbe882a92	-0.2659498
1	0x3efc9647	0.49333403
2	0x3f754b46	0.95817983
3	0xbca8bbc0	-0.020597339
4	0x3ea281e6	0.3173973
5	0x3eed3ef1	0.46337083
6	0x3e48e082	0.19616893
7	0x3f85d77d	1.0456387

l3.weight f4 [19, 8]
0	0x3e2147b6	0.15750012
1	0xbfc702b4	-1.55477
2	0x3c3c5227	0.011494196
3	0x3e48d89e	0.19613883
4	0xbfe0f39d	-1.7574345
5	0x3ea7a4b1	0.32742837
6	0x3f0154f6	0.50520265
7	0xbfad99f2	-1.3562605
8	0xbeac67ea	-0.3367303
9	0xbfaa17b4	-1.3288484
10	0xbe739128	-0.23785841
11	0x3e1f7df6	0.15575394
12	0x3f151116	0.58229196
13	0xbd724776	-0.05915018
14	0xbf4a7f1e	-0.79100215
15	0x3f0e69f1	0.55630404
16	0xbe64dbe8	-0.22349513
17	0x3ebebf82	0.37255484
18	0x3f3bebc3	0.7340662
19	0x3eac329d	0.33632365
20	0xbfa95037	-1.3227605
21	0x3c619dad	0.013770503
22	0xbf41d9fc	-0.7572324
23	0xc01ba5e1	-2.4319994
24	0x3e9e9753	0.30974826
25	0xbe87c335	-0.2651612
26	0xbfe7e37b	-1.8116297
27	0xbdeaa902	-0.11458017
28	0x3ea837f2	0.32855183
29	0xbcc62c13	-0.024190938
30	0x3d916ca8	0.07100803
31	0xbf5e0dfa	-0.86740077
32	0xbe8cdf06	-0.27513903
33	0xbfd95d4f	-1.69816
34	0x3f084799	0.5323425
35	0x3e538076	0.20654473
36	0x3ecb945d	0.3976163
37	0x3f35fb98	0.71087027
38	0xbfc09207	-1.5044564
39	0xbfb3b491	-1.403948
40	0xbeb44d42	-0.35215193
41	0x3e1b1f4b	0.15148656
42	0xbf2b7f85	-0.66991454
43	0x3dd24ac0	0.10268164
44	0xbf955a30	-1.1668148
45	0xc012e703	-2.2953498
46	0x3f2b4650	0.66904163
47	0xbf5a4473	-0.85260695
48	0x3e36d72e	0.17855522
49	0x3d32ca12	0.04364974
50	0xbfcdf51c	-1.6090426
51	0xbe991098	-0.29895473
52	0x3f09e70d	0.5386818
53	0x3f3f158f	0.7464227
54	0xbfd1da87	-1.6394814
55	0x3dae354c	0.08506259
56	0xbe82b8af	-0.25531527
57	0xbfa706a5	-1.3048903
58	0xbec00022	-0.375001
59	0x3e97c625	0.2964336
60	0x3f12be37	0.57321495
61	0xbfdc1620	-1.7194252
62	0x3f04ac38	0.51825285
63	0xbd25fc9e	-0.040524118
64	0x3eb28bfd	0.34872428
65	0x3e253a44	0.16135508
66	0xbe90b00f	-0.28259322
67	0xbe1da13c	-0.15393537
68	0xbf044145	-0.51662093
69	0x3f57957f	0.8421249
70	0xbf5035f6	-0.8133234
71	0xbf0d1228	-0.5510583
72	0x3db8d49c	0.09024927
73	0x3eb49d55	0.35276285
74	0xbfc56630	-1.542181
75	0xbe62c996	-0.22147211
76	0xc00bd8ce	-2.1851077
77	0xbf8bc0b6	-1.0918186
78	0x3e3fa953	0.18716936
79	0x3f5b27f1	0.8560782
80	0xbe3bd973	-0.18344669
81	0x3f0b2b94	0.5436337
82	0xbfc082b4	-1.5039887
83	0x3e7d1442	0.24714759
84	0xbeb8030a	-0.3593982
85	0x3e19fece	0.15038607
86	0xbedd1b34	-0.43184817
87	0x3990183a	0.0002748387
88	0xbe18daa0	-0.14927149
89	0x3f3b1c8d	0.7309044
90	0x3f06ae33	0.52609557
91	0xbea9951d	-0.33121577
92	0xbf9dc091	-1.2324392
93	0xbfde1959	-1.7351485
94	0xbdd7a121	-0.1052878
95	0xbfbfacbf	-1.4974593
96	0xbe85517b	-0.26038727
97	0x3f38c880	0.7218094
98	0xbfee1d5a	-1.8602707
99	0x3d80ac48	0.0628286
100	0xbf76021f	-0.96096987
101	0xbefb9383	-0.4913598
102	0x3e84a8c3	0.25910005
103	0xbfa58dd2	-1.2933905
104	0xbeafd672	-0.34343296
105	0x3e9bb028	0.30407834
106	0xbe40cfe9	-0.18829311
107	0x3e3e094a	0.18558231
108	0xbe558a65	-0.20853575
109	0xbf9b890e	-1.2151201
110	0x3dd9e4ad	0.106393196
111	0x3d9713be	0.073768124
112	0x3d033bf8	0.032039613
113	0xbfe36b4e	-1.7767122
114	0x3f98e2ea	1.1944249
115	0x3e94544d	0.28970566
116	0x3ec34f1d	0.38146296
117	0xbfaf6956	-1.3704021
118	0xbf66eb16	-0.9020246
119	0xbfb3a836	-1.4035709
120	0x3e9a768d	0.30168572
121	0xbff312e4	-1.899014
122	0xbf6bf614	-0.9217236
123	0xbe80e537	-0.25174877
124	0x3f142365	0.5786651
125	0x3f6cd3d9	0.92510754
126	0xbeea161e	-0.4572
127	0xbfae02e4	-1.3594632
128	0xbe8ec7d7	-0.2788684
129	0xbe4e53de	-0.2014918
130	0x3f5a7eee	0.8534993
131	0xbe01f6ca	-0.12691799
132	0xbd84aff9	-0.064788766
133	0xbf2b93e0	-0.67022514
134	0xbf680757	-0.906362
135	0x3e6081c4	0.21924502
136	0xbd870284	-0.06592277
137	0xbdd348b6	-0.10316603
138	0x3caed6df	0.021342693
139	0xbe865d34	-0.26242983
140	0x3ee85db7	0.45384
141	0x3ec24da2	0.37949854
142	0xc06c3bf9	-3.6911604
143	0x3f306808	0.6890874
144	0xbe9fe39b	-0.31228337
145	0x3f186802	0.59533703
146	0xbf2c49c4	-0.6730006
147	0x3e3d982e	0.18515083
148	0xbf2b4261	-0.6689816
149	0xbe9614a0	-0.2931261
150	0xbfac597e	-1.3464811
151	0x3f84f79b	1.0388063

l3.bias f4 [19]
0	0x3f454753	0.7706196
1	0xbf324418	-0.6963515
2	0xbe5653ee	-0.20930454
3	0xbda2311e	-0.079195246
4	0xbd1b5081	-0.03791857
5	0x3dcf67c3	0.10127213
6	0xbf234b18	-0.6378646
7	0x3e5526d0	0.20815587
8	0x3df52c9d	0.119714
9	0x3e4dcc4d	0.20097466
10	0xbf6f5139	-0.9348331
11	0x3e68be8e	0.22728941
12	0x3d1de3d7	0.038547363
13	0xbecf15bf	-0.40446278
14	0x3edc3012	0.43005425
15	0x3ec920ad	0.39282742
16	0x3f038356	0.5137228
17	0x3e86ff73	0.26366767
18	0x3e837186	0.2567255
