data.pth (torch, 8170 bytes, 6 tensors)

l1.weight f4 [8, 101]
0.28933093 0.26935488 0.20334502 0.92694443 0.82398415 0.7467548 0.07095845 0.88236237
0.14038423 -0.43340144 0.8639573 0.013900489 -0.08230777 0.23782662 0.3470895 0.29089224
0.190534 0.14524926 0.5671124 0.56958514 0.41760176 0.0804283 0.27438423 -0.018553177
-0.07819503 0.5265669 0.8605285 0.0692827 -0.31069607 0.72998357 -0.6426373 -0.27611798
-0.12070348 0.14301534 0.111212075 -0.55482066 0.07269277 -0.59723234 0.5406867 -0.06815163
0.4495671 -0.004045229 -0.4704308 0.34633297 0.026061665 0.49425235 0.48990193 0.20984265
0.18457465 -0.4094819 0.07278026 0.1307877 0.018815497 -0.31456545 -0.17646028 -0.0010189852
0.007309253 0.41430327 0.3503766 0.2737669 0.40850672 0.1702604 0.8097839 0.90735483
0.5725568 -0.05426645 1.0007894 0.56682825 0.8793823 0.003301531 0.4827969 0.14440107
0.5810658 1.149754 0.8025377 0.30761486 0.9551265 -0.5756301 0.075193994 0.48009548
0.09753397 -0.72522277 0.5478612 0.30458704 -0.8046093 0.93091077 -0.030023113 -0.05230831
-0.23436524 0.6448024 0.53565925 0.078772925 -0.08257292 -0.18241642 -0.007759615 -0.73137003
0.26452953 0.59352195 0.42991024 0.84823656 -0.13166788 0.2937331 0.001695191 -0.90311223
0.15747201 0.9631527 -0.5413252 0.36672872 0.635905 0.4330779 0.51795745 0.72150874
0.021691695 -0.7272509 -0.083559096 0.5419234 -0.47685838 -0.39675727 -0.44757396 -0.1649973
-0.06742815 -0.32158682 -0.055357933 -0.53364 -0.4995235 0.7608188 -0.32518426 -0.53214717
0.095635004 0.46968785 0.09718833 0.2990965 -0.4781521 0.46557787 0.13502075 -0.046347715
0.9658127 1.3944129 0.82724065 -0.29469165 0.49608898 0.33299592 0.9291914 0.46087003
-0.090129144 -0.4569979 0.43641445 0.25563434 0.056034163 0.055302043 0.50519484 -0.47692478
0.117361754 -0.13575812 0.3310872 -0.3034315 0.6260794 -0.05142546 0.5779445 -0.2095883
0.28994098 0.44868577 0.43881974 0.4059787 0.03989371 0.28269178 -0.12488237 0.35304523
-0.5293843 0.4360108 0.036940716 -0.16078791 0.08786336 -0.55662596 -0.38963383 -0.7685096
-0.055427406 -0.66832465 0.7524029 0.0036803856 1.1964192 -0.09413846 -1.0596344 -0.139816
-0.12618011 -1.059984 -0.5280492 -0.27134615 -0.10347919 0.38258404 0.7359231 -0.47311217
0.30327532 0.34054962 0.03318992 -0.4686674 0.33514962 -0.057002414 -0.24244307 0.48372614
0.2824618 -1.6797454e-05 -0.14117537 0.020254109 -0.17438132 0.60182697 -0.81429744 0.5052867
-0.09512395 1.1180322 -0.21503724 -0.38886607 1.0773083 0.060695566 -0.42690733 -0.001606594
-0.05285848 -0.23109072 0.25916186 0.771791 0.83642 0.18237665 0.6092772 0.0035986146
-0.092393264 -0.07393336 -0.44054195 0.45461962 0.94849104 0.05046325 0.07419779 0.25095877
-0.26801553 -0.06817177 -0.25404438 0.07984736 -0.023711007 -0.5128333 0.090316586 -0.5128429
-0.22524229 0.12707987 0.43541747 0.8614983 -0.52150875 0.22245067 -0.51966566 0.36522982
-0.03160993 -0.09169603 0.2373258 -0.16947438 -0.14958608 0.051629853 -0.1354945 0.05482407
00000000: 2f23 943e e2e8 893e ad39 503e 3b4c 6d3f
00000010: a0f0 523f 532b 3f3f aa52 913d 80e2 613f
00000020: e2c0 0f3e cbe6 ddbe 4e2c 5d3f e0be 633c
00000030: fa90 a8bd d288 733e b7b5 b13e d4ef 943e
00000040: 581b 433e 39bc 143e 472e 113f 55d0 113f
00000050: e6cf d53e 98b7 a43d 177c 8c3e d5fc 97bc
00000060: b724 a0bd 17cd 063f 994b 5c3f 17e4 8d3d
00000070: 8e13 9fbe 34e0 3a3f e183 24bf 565f 8dbe
00000080: 6333 f7bd 9d72 123e 28c3 e33d ba08 0ebf
00000090: f2df 943d 38e4 18bf 726a 0a3f 1593 8bbd
000000a0: a92d e63e d78d 84bb 4edc f0be 8e52 b13e
000000b0: 467f d53c a50e fd3e 6dd4 fa3e fee0 563e
000000c0: 2301 3d3e 9da7 d1be d10d 953d 36ed 053e
000000d0: f522 9a3c b90e a1be 01b2 34be 788f 85ba
000000e0: 7582 ef3b 8f1f d43e 9064 b33e 2d2b 8c3e
000000f0: cb27 d13e be58 2e3e ff4d 4f3f 6848 683f
00000100: 1593 123f 7f46 5ebd de19 803f a81b 113f
00000110: 331f 613f 805e 583b 2831 f73e e0dd 133e
00000120: bac0 143f 242b 933f 1c73 4d3f b27f 9d3e
00000130: 2c83 743f 7f5c 13bf 4fff 993d 13cf f53e
00000140: e4bf c73d 33a8 39bf a240 0c3f d5f2 9b3e
00000150: e0fa 4dbf 2b50 6e3f 08f3 f5bc 3d41 56bd
00000160: 71fd 6fbe c511 253f f720 093f b353 a13d
00000170: fe1b a9bd 5fcb 3abe 5e44 febb 113b 3bbf
00000180: 6a70 873e 0ef1 173f 321d dc3e 0826 593f
00000190: f2d3 06be 2f64 963e 2c31 de3a 5d32 67bf
000001a0: 5840 213e 2d91 763f 4a94 0abf dec3 bb3e
000001b0: acca 223f 63bc dd3e dc98 043f ccb4 383f
000001c0: c8b2 b13c 1d2d 3abf 0821 abbd 7ebb 0a3f
000001d0: c826 f4be c523 cbbe 6a28 e5be 0df5 28be
000001e0: c517 8abd 07a7 a4be 00bf 62bd a29c 08bf
000001f0: 8bc1 ffbe 05c5 423f 8d7e a6be cc3a 08bf
00000200: 49dc c33d ed7a f03e ad0a c73d 2d23 993e
00000210: 5ad0 f4be 3960 ee3e e142 0a3e 1ad7 3dbd
00000220: 803f 773f 1f7c b23f 0bc6 533f d3e1 96be
00000230: 60ff fd3e 717e aa3e 7ddf 6d3f 28f7 eb3e
00000240: a195 b8bd a1fb e9be b771 df3e 81e2 823e
00000250: 1484 653d 6584 623d 7354 013f 7c2f f4be
00000260: 5c5b f03d 2d04 0bbe 4384 a93e 605b 9bbe
00000270: bd46 203f 81a3 52bd 2cf4 133f 519e 56be
00000280: 2573 943e 24ba e53e fbac e03e 71dc cf3e
00000290: 9667 233d fabc 903e 54c2 ffbd 58c2 b43e
000002a0: bb85 07bf cf3c df3e 264f 173d 96a5 24be
000002b0: b5f1 b33d 0a7f 0ebf 167e c7be 0cbd 44bf
000002c0: d907 63bd 5317 2bbf 7a9d 403f a032 713b
000002d0: 4424 993f aacb c0bd 1aa2 87bf ed2b 0fbe
000002e0: 5c35 01be 8ead 87bf 3b2e 07bf e2ed 8abe
000002f0: e6ec d3bd 0ee2 c33e 7565 3c3f c23b f2be
00000300: e746 9b3e 855c ae3e 27f2 073d 2cf5 efbe
00000310: bb98 ab3e 5d7b 69bd ff42 78be f4aa f73e
00000320: d59e 903e 42e8 8cb7 4790 10be f2eb a53c
00000330: 0491 32be 5511 1a3f cc75 50bf 785a 013f
00000340: 58d0 c2bd ae1b 8f3f b932 5cbe 7419 c7be
00000350: 3de5 893f ea9b 783d 9993 dabe 5994 d2ba
00000360: 2282 58bd 0ca3 6cbe ddb0 843e 1894 453f
00000370: 9f1f 563f f2c0 3a3e 97f9 1b3f bcd6 6b3b
00000380: ae38 bdbd 606a 97bd b78e e1be e7c3 e83e
00000390: 4fd0 723f 8eb2 4e3d 03f5 973d ab7d 803e
000003a0: 5539 89be a49d 8bbd 1b12 82be 0387 a33d
000003b0: 963d c2bc 0b49 03bf e7f7 b83d ac49 03bf
000003c0: eaa5 66be 3a21 023e 0aef de3e 278b 5c3f
000003d0: 9981 05bf 1cca 633e cf08 05bf 67ff ba3e
000003e0: 6a79 01bd 21cb bbbd 8905 733e b18a 2dbe
000003f0: 182d 19be d379 533d 12bf 0abe 348f 603d

l1.bias f4 [8]
0.8535683 1.0600178 0.5128771 0.72394186 0.62438154 1.0217102 1.0585141 1.0313516
00000000: 7483 5a3f aaae 873f ea4b 033f 4154 393f
00000010: 78d7 1f3f 66c7 823f 647d 873f 5403 843f

l2.weight f4 [8, 8]
1.0749223 -0.6783779 -0.04805527 -1.3607738 1.6868292 -0.33982024 1.4054074 1.3945738
0.52966255 -0.19642912 -0.6141087 -0.9350269 0.77095395 1.7057949 1.6508989 -0.8972222
1.4810022 0.6407797 1.2922827 -0.1090545 0.28629705 1.3444852 -0.13839011 -1.133035
0.72684073 -0.9913556 1.3614303 0.49156368 0.83101594 0.19521116 -0.7276797 0.368735
-0.29276234 -0.3160949 -0.13149521 -0.21402557 -0.162789 -0.1134827 -0.14990403 0.11524862
1.4828918 0.8268208 0.90331227 0.3659496 -0.5483697 -1.5256808 -0.27002487 0.42920214
0.86469954 -0.21037798 1.7253522 1.7508029 -1.095304 0.9828072 -0.9318538 0.53291047
0.21595246 2.003635 -0.19011644 1.0100541 -1.5267023 0.8628642 0.7285024 2.0098255
00000000: 0e97 893f 2daa 2dbf 9ad5 44bd d62d aebf
00000010: 05ea d73f ebfc adbe 64e4 b33f 6581 b23f
00000020: f797 073f b724 49be 3a36 1dbf ec5d 6fbf
00000030: 3d5d 453f 7d57 da3f a850 d33f 5bb0 65bf
00000040: 7b91 bd3f 230a 243f 8569 a53f f757 dfbd
00000050: 8795 923e 1718 ac3f 23b6 0dbe 4a07 91bf
00000060: 3c12 3a3f 7bc9 7dbf 5943 ae3f 3cae fb3e
00000070: 76bd 543f 6fe5 473e 3849 3abf d5ca bc3e
00000080: f2e4 95be 31d7 a1be aea6 06be 8529 5bbe
00000090: 29b2 26be 9e69 e8bd 7180 19be 7807 ec3d
000000a0: 66cf bd3f 87aa 533f 793f 673f bf5d bb3e
000000b0: f561 0cbf 8249 c3bf b340 8abe 62c0 db3e
000000c0: f35c 5d3f 536d 57be 57d8 dc3f 4f1a e03f
000000d0: ec32 8cbf 4199 7b3f f88d 6ebf d26c 083f
000000e0: a422 5d3e 8e3b 0040 e2ad 42be 7449 813f
000000f0: fb6a c3bf abe4 5c3f 227f 3a3f fba0 0040

l2.bias f4 [8]
-0.14219008 0.74340653 -0.37121627 -0.044764638 -0.33475822 0.37410602 0.34342435 0.41442198
00000000: 479a 11be e44f 3e3f 0f10 bebe 205b 37bd
00000010: 6e65 abbe d38a bf3e 51d5 af3e 1e2f d43e

l3.weight f4 [18, 8]
0.21488613 -1.6911966 -0.2741208 0.4544523 0.29915085 0.20611633 -0.30994564 -0.6426663
-0.18895103 0.9180623 0.6827692 -0.73446673 -0.15786128 -1.2966542 -0.9496614 -1.3526978
-1.3332343 -0.6352122 0.17875631 -1.5860069 -0.004617363 -2.0317335 0.49920627 0.36029077
0.43016875 0.09657514 0.13116881 -0.002142656 0.3293626 -0.87654155 -0.6194148 -1.2841276
0.21952185 0.2571932 -0.16643739 -1.2363211 -0.06509128 -2.0277805 0.12891768 -0.2889072
0.14159897 -0.28853455 -1.6061095 -2.7095954 -0.17504252 -0.434872 -1.8823847 0.43729174
-0.15225211 -2.0400546 -1.7901019 -2.048997 -0.038772196 0.5903953 -0.41448528 0.35100734
-1.2164359 -1.3428812 -0.3977285 -0.21681832 -0.08138576 0.9033351 0.23416366 -0.26182717
-2.8510602 -1.8272889 -0.25670177 -2.7898967 0.22142509 0.31454882 0.33193812 0.58469325
-0.6617629 0.13050698 0.52784306 -0.27253282 -0.17256276 -1.0443313 0.4622356 -0.6599333
-1.7661998 0.05940884 0.28908443 0.6932491 -0.08425245 0.19169357 0.52689314 -1.6185019
-0.5919669 0.029368008 -1.9595429 -2.887992 -0.18471159 -1.8483471 -0.23836972 0.7218331
0.2696302 -0.3682089 0.117547154 -1.4059131 0.08468506 0.067768194 -0.74972236 -0.35019404
-1.1686698 -1.5790123 -2.4102094 0.6162227 0.10683477 -0.91410387 0.76728284 0.21749148
-0.023466796 0.23111238 0.33582252 0.8839145 -0.31414068 -1.0795023 0.19254556 -2.267767
0.6826412 -0.062182926 -2.086088 -0.3607755 -0.21294665 -1.5750543 -0.87772167 -0.26011297
-1.9649452 1.0906694 0.45208105 -2.7726498 0.077733666 -1.2511287 -0.8381884 0.31284848
0.75466716 1.0805267 -1.7886356 -2.4782727 -0.20050803 -0.9226591 -0.5268782 -1.562509
00000000: 1c0b 5c3e 2179 d8bf 9059 8cbe f9ad e83e
00000010: 4d2a 993e 2910 533e 32b1 9ebe c785 24bf
00000020: 617c 41be 2206 6b3f f6c9 2e3f 0306 3cbf
00000030: 63a6 21be c4f8 a5bf 021d 73bf 3425 adbf
00000040: 6ca7 aabf 449d 22bf e50b 373e 4602 cbbf
00000050: 404d 97bb ec07 02c0 f797 ff3e 0878 b83e
00000060: 143f dc3e 30c9 c53d 1e51 063e cd6b 0cbb
00000070: 37a2 a83e 0765 60bf f891 1ebf 4b5e a4bf
00000080: 56ca 603e d4ae 833e 906e 2abe c53f 9ebf
00000090: 944e 85bd 28c7 01c0 ff02 043e a5eb 93be
000000a0: 52ff 103e cdba 93be ff94 cdbf 036a 2dc0
000000b0: 593e 33be 8ba7 debe fbf1 f0bf b4e4 df3e
000000c0: fae7 1bbe 4190 02c0 0f22 e5bf c422 03c0
000000d0: 98cf 1ebd 2524 173f 6a37 d4be 3cb7 b33e
000000e0: 2cb4 9bbf 88e3 abbf 12a3 cbbe 9f05 5ebe
000000f0: 94ad a6bd f840 673f 99c8 6f3e 360e 86be
00000100: c577 36c0 9ae4 e9bf 6a6e 83be ab8d 32c0
00000110: 42bd 623e 8b0c a13e cbf3 a93e 75ae 153f
00000120: 4b69 29bf 9fa3 053e b920 073f 6c89 8bbe
00000130: 4bb4 30be a6ac 85bf 25aa ec3e 64f1 28bf
00000140: d612 e2bf af56 733d e002 943e c678 313f
00000150: 8c8c acbd 524b 443e 78e2 063f 122b cfbf
00000160: 258b 17bf 2d95 f03c 4dd2 fabf dcd4 38c0
00000170: 0925 3dbe a396 ecbf 3117 74be 0eca 383f
00000180: f80c 8a3e e085 bcbe 90bc f03d f6f4 b3bf
00000190: 5c6f ad3d 0dca 8a3d ceed 3fbf a24c b3be
000001a0: f996 95bf 131d cabf df40 1ac0 c5c0 1d3f
000001b0: 30cc da3d b602 6abf a66c 443f 16b6 5e3e
000001c0: 703d c0bc b9a8 6c3e eef0 ab3e 3848 623f
000001d0: 0cd7 a0be 222d 8abf aa2a 453e 1823 11c0
000001e0: 93c1 2e3f 86b3 7ebd 7782 05c0 91b7 b8be
000001f0: b00e 5abe 619b c9bf 5eb2 60bf 872d 85be
00000200: 5383 fbbf 0e9b 8b3f 2b77 e73e 1873 31c0
00000210: d432 9f3d fc24 a0bf 8493 56bf ad2d a03e
00000220: de31 413f b34e 8a3f 03f2 e4bf 059c 1ec0
00000230: fa51 4dbe 6333 6cbf 7de1 06bf 4b00 c8bf

l3.bias f4 [18]
0.019831836 0.26735693 -0.3588556 -0.65663534 -0.34747037 -0.59601855 0.28463072 -0.47162783
0.31116647 -0.28278702 -0.050924424 -0.050708253 -0.5144387 0.5450112 -0.36003366 -0.08455598
0.08101047 0.5411762
00000000: 6076 a23c 02e3 883e ecbb b7be 4119 28bf
00000010: a3e7 b1be ac94 18bf 1ebb 913e 3479 f1be
00000020: 3651 9f3e 76c9 90be 2196 50bd 75b3 4fbd
00000030: 41b2 03bf db85 0b3f 5556 b8be b02b adbd
00000040: d1e8 a53d 868a 0a3f
