data.pth (torch, 8170 bytes, 6 tensors)

l1.weight f4 [8, 101]
0	0x3f022ebb	0.50852555
1	0x3db9aceb	0.090661846
2	0x3ee1bad2	0.44087845
3	0x3f9d3e7e	1.2284696
4	0x3f89c9d1	1.0764714
5	0x3d7bf08c	0.0615087
6	0x3ec0c3e5	0.37649456
7	0x3f6ddea7	0.92917866
8	0x3e99385c	0.2992581
9	0x3e991960	0.29902172
10	0x3f60e393	0.8784725
11	0xbb933460	-0.0044923276
12	0xbf050a9d	-0.5196932
13	0xbcb95e2f	-0.022627918
14	0xbe901138	-0.28138137
15	0xbee04f47	-0.43810484
16	0xbd1b69b9	-0.03794262
17	0x3f41bef5	0.75682
18	0xbf07c6ae	-0.53037536
19	0x3f2b2429	0.6685205
20	0xbedbd61b	-0.42936787
21	0x3dfdb7cc	0.12388572
22	0x3ef17ce7	0.47165605
23	0x3ea31a3c	0.31855953
24	0x3d0bb518	0.03410825
25	0xbe9b5c11	-0.3034368
26	0xbf0e31ea	-0.5554491
27	0xbd9ec1ff	-0.077518456
28	0x3e0a7867	0.13522492
29	0x3ebb22b5	0.36549917
30	0x3e8f1606	0.2794649
31	0xbec76835	-0.3894669
32	0xbe058d6f	-0.13042234
33	0x3e2f5bdb	0.17124884
34	0x3e2bead5	0.167888
35	0x3f205d66	0.62642515
36	0x3f3d9062	0.74048436
37	0x3f1349d8	0.5753455
38	0xbf0beeac	-0.5466106
39	0x3d6e668d	0.05820327
40	0x3e95af39	0.29235247
41	0x3f84316a	1.032758
42	0x3ee6277e	0.44952005
43	0xbd453ba9	-0.0481526
44	0xbf4b2e41	-0.7936745
45	0x3db8ee77	0.090298586
46	0x3eb9ab67	0.36263582
47	0xbe35b999	-0.17746581
48	0x3ec049b2	0.37556225
49	0x3e458aa5	0.1929117
50	0xbef45a68	-0.47725224
51	0x3e5407ea	0.20706144
52	0xbec296fb	-0.38005814
53	0x3eade7f7	0.33966038
54	0x3f23b127	0.6394219
55	0x3ee1459c	0.4399842
56	0x3e9859c3	0.29755983
57	0x3f0346d9	0.5127998
58	0xbe300544	-0.17189509
59	0xbef158d8	-0.47138095
60	0xbdd0c062	-0.10192944
61	0x3eb8dd6d	0.36106434
62	0x3f49981d	0.7874773
63	0x3da8edcc	0.08248481
64	0x3f0718be	0.5277213
65	0x3ec51e7d	0.38499823
66	0xbf4d3bce	-0.8016938
67	0xbece7331	-0.4032226
68	0x3f1e9799	0.6195007
69	0x3d77191e	0.060326688
70	0xbe88c5eb	-0.267135
71	0x3e673b23	0.22581153
72	0x3f5aa67f	0.854103
73	0xbf248c91	-0.6427699
74	0xbf5ade4e	-0.8549546
75	0x3ef6a50c	0.48172796
76	0xbf4aae3d	-0.79172117
77	0xbe39b10a	-0.18133941
78	0x3d8fc27b	0.07019516
79	0xbe864955	-0.26227823
80	0x3ec841d7	0.39112732
81	0x3fc01d7d	1.5008999
82	0x3f27d2a5	0.65555793
83	0x3ebe82c4	0.3720914
84	0xbe9d1fea	-0.3068841
85	0xbf126460	-0.5718441
86	0xbef6f26d	-0.4823183
87	0x3ec53a72	0.38521153
88	0x3ea7c8ef	0.32770488
89	0xbd9f3dc4	-0.07775453
90	0x3f5f5505	0.87239105
91	0x3ea7fd69	0.32810524
92	0xbe387ab7	-0.18015562
93	0x3ca7774f	0.020442633
94	0xbea0fa77	-0.3144109
95	0x3eaad4c5	0.33365455
96	0xbe176dca	-0.14787975
97	0xbf1472e0	-0.57987785
98	0x3ed87d12	0.4228292
99	0x3dd76cce	0.105188
100	0x3f5971db	0.84939355
101	0x3e7c5472	0.24641588
102	0x3e7dad7b	0.24773209
103	0xbe3bbc3e	-0.18333527
104	0xbf19847f	-0.599678
105	0xbf1ee2ad	-0.6206463
106	0x3d1eb722	0.038748868
107	0x3df94e00	0.121730804
108	0x3f140755	0.5782369
109	0xbe4ea177	-0.20178781
110	0xbea053f6	-0.31314057
111	0x3f20842c	0.6270168
112	0xbd3d7a0f	-0.046258982
113	0x3eb26a9a	0.34846956
114	0x3c97aefe	0.01851606
115	0xbd718046	-0.05896022
116	0x3e8506e2	0.25981814
117	0x3f146fdc	0.57983184
118	0xbe955f93	-0.2917448
119	0xbdf6008b	-0.12011822
120	0xbdd1177c	-0.102095574
121	0x3e7fa040	0.24963474
122	0xbd9cc84e	-0.076553926
123	0x3deeb7f7	0.11656182
124	0xbda7efc2	-0.08200027
125	0xbc23c1f2	-0.009994971
126	0x3e8074d3	0.2508913
127	0xbeca772a	-0.3954404
128	0x3c4471c8	0.011990018
129	0x3d7647ac	0.060126945
130	0xbdf63fb7	-0.120238714
131	0xbdff0263	-0.12451627
132	0x3ed98d65	0.42490688
133	0x3e1f5bd3	0.15562372
134	0x3e1e5d02	0.15465167
135	0xbdb20cef	-0.08693873
136	0xbec63dab	-0.38718924
137	0xbee68adc	-0.45027816
138	0xbef75783	-0.48308954
139	0x3ef66d32	0.48130184
140	0x3bac6c8e	0.005261964
141	0x3eb1b4d6	0.3470828
142	0xbeb4ea15	-0.3533484
143	0xbe9e5b6d	-0.30929127
144	0x3f06ec72	0.52704537
145	0x3ef403d5	0.47659174
146	0x3eef16fd	0.46697226
147	0x3c05ac3d	0.008158741
148	0x3e1ffa43	0.15622811
149	0x3df3f959	0.11912794
150	0xbd5a3f4b	-0.053283017
151	0x3e4d1e41	0.20031072
152	0xbcb17803	-0.021663671
153	0x3f43a7ff	0.76428217
154	0xbe9ccee1	-0.30626586
155	0xbd878f07	-0.06619077
156	0xbd018d21	-0.03162873
157	0xbd8ade4d	-0.06780682
158	0x3ec5f2fe	0.3866195
159	0x3eea3fe6	0.45751876
160	0x3e649fad	0.22326536
161	0x3dacacc9	0.08431394
162	0xbd848d21	-0.06472231
163	0x3f5bd0e9	0.85865647
164	0x3f216739	0.6304813
165	0x3f0b4180	0.5439682
166	0x3f0d2d9b	0.55147713
167	0x3f0c3db7	0.5478167
168	0xbe887123	-0.26648816
169	0x3f80ee86	1.0072792
170	0x3d9d3f35	0.076780714
171	0x3ec9c9da	0.39411813
172	0x3bab663e	0.005230694
173	0xbedb2176	-0.42798966
174	0x3e7040f7	0.23462282
175	0x3f6edc44	0.9330485
176	0xbe85d8d9	-0.26142004
177	0x3f5c5658	0.8606925
178	0x3c1c4f84	0.009540442
179	0x3d839625	0.06425122
180	0x3f0a9a53	0.5414173
181	0xbd4628cf	-0.04837876
182	0xbe8c74cb	-0.27432856
183	0xbd2641eb	-0.040590208
184	0x3e908bc7	0.28231642
185	0x3f996e04	1.1986699
186	0xbea79f5c	-0.3273877
187	0x3e95f513	0.2928854
188	0x3f0cace1	0.5495129
189	0xbe1858c8	-0.14877617
190	0x3ee24051	0.44189695
191	0xbeb81ef8	-0.35961127
192	0xbd4dfe77	-0.050291505
193	0x3e7d75b3	0.2475193
194	0xbe0f6256	-0.14002356
195	0x3e9bc251	0.3042169
196	0xbeba665e	-0.36406225
197	0x3d509d27	0.050931122
198	0x3e83804a	0.25683814
199	0xbbff848f	-0.0077977846
200	0x3f3920fa	0.72315943
201	0x3d7b4103	0.061341297
202	0x3ea84eae	0.32872528
203	0xbdee8d1d	-0.11648009
204	0x3eb81248	0.35951447
205	0x3f82ca0f	1.0217913
206	0x3f7ce891	0.9879237
207	0x3e5c7bd4	0.21531612
208	0x3eff0693	0.49809703
209	0xbe81a11b	-0.25318226
210	0x3e41fef6	0.18944916
211	0xbe57875d	-0.2104773
212	0xbe3993c2	-0.18122771
213	0xbd665b73	-0.056239557
214	0xbc832390	-0.016008168
215	0x3e4d3fc8	0.20043862
216	0x3e9a5e90	0.3015027
217	0x3cd1e3ee	0.02562138
218	0xbcdaf67a	-0.026728857
219	0x3fa236f8	1.2673025
220	0xbecebeec	-0.40380037
221	0x3f0e906c	0.5568912
222	0xbebb8d22	-0.36631113
223	0x3f31df93	0.6948177
224	0x3f11a520	0.56892586
225	0x3f16512b	0.587176
226	0x3f862c0a	1.048219
227	0xbef342fe	-0.47512048
228	0x3f01edc3	0.5075342
229	0xbd01f938	-0.031731814
230	0x3f7a0e68	0.9767823
231	0x3f0d7e6c	0.5527103
232	0x3f0ef5b9	0.55843693
233	0x3ec4b53b	0.38419518
234	0xbde796a2	-0.11308028
235	0x3d29a51f	0.041417237
236	0x3d2f3b74	0.04278131
237	0x3da79bfe	0.0818405
238	0xbeb6633a	-0.3562258
239	0x3df6e332	0.12055053
240	0xbdf06f66	-0.117399976
241	0x3eb7adc5	0.35874763
242	0x3eda31ff	0.4261627
243	0x3f2b17b4	0.66833043
244	0x3eeb4056	0.45947522
245	0x3eaf2892	0.3421064
246	0x3deb2e56	0.11483447
247	0x3f0e7a21	0.55655104
248	0x3efd3975	0.494579
249	0x3e277b4a	0.16355625
250	0x3e4deac6	0.2010909
251	0x3eedf376	0.46474808
252	0xbdf24536	-0.11829607
253	0x3f3305ca	0.6993071
254	0x3e7c0818	0.24612463
255	0x3e9c2cc0	0.30502892

l1.bias f4 [8]
0	0x3f9035df	1.126644
1	0x3ef75035	0.4830338
2	0x3f93d11e	1.1548193
3	0x3f3b39fb	0.73135346
4	0x3f8c9b47	1.0984887
5	0x3eabd467	0.33560488
6	0x3ef057f8	0.46942115
7	0x3f6954bf	0.9114494

l2.weight f4 [8, 8]
0	0x3f4a892c	0.7911556
1	0x3f7fd0b2	0.9992782
2	0x3e9ae838	0.30255294
3	0xbfcf982d	-1.6218315
4	0x3f9abf92	1.2089713
5	0x3f11f1b7	0.5700945
6	0x3faa21e9	1.3291599
7	0xbf8b799b	-1.0896486
8	0x3f00ae41	0.5026589
9	0x3fa4c379	1.2872154
10	0xbdbec1f8	-0.0931434
11	0xbf674aea	-0.90348685
12	0x3fb872b8	1.4410009
13	0x3f15dbc9	0.5853849
14	0x3fa3abdf	1.2786826
15	0xbf8b31ea	-1.0874608
16	0xbf42ca8d	-0.7609032
17	0x3f90bc49	1.130746
18	0x3fb17772	1.3864577
19	0x3f022863	0.50842875
20	0xbef0efd9	-0.4705799
21	0x3ff22b75	1.8919512
22	0x3f7baa01	0.9830628
23	0x3b6bff1e	0.0036010216
24	0xbd0d5133	-0.034501266
25	0x3f99dfbe	1.2021406
26	0x3f3a8b3e	0.72868717
27	0xbf52ec0a	-0.8239142
28	0x3fa7a6f9	1.3097831
29	0xbf685f60	-0.9077053
30	0xbfb929d0	-1.4465885
31	0x3fee0ad5	1.8597056
32	0xbf9c70ed	-1.2221962
33	0x3f1ba8cd	0.60804445
34	0xbe4d5979	-0.20053662
35	0x3fdeb5fb	1.7399286
36	0x3f9585da	1.1681473
37	0x3f011291	0.50418955
38	0x3f2707b8	0.6524615
39	0x3f620941	0.8829537
40	0xbec426d9	-0.38310888
41	0xbd2e98f1	-0.042626325
42	0x3fa56eae	1.2924402
43	0xbecd4e8b	-0.40098986
44	0xbe3ce0eb	-0.18445174
45	0xbead13fd	-0.33804312
46	0x3e5b73ad	0.21430846
47	0x3fbe7bfe	1.488159
48	0x3f8f00cc	1.1172118
49	0xbf24d0f9	-0.64381367
50	0x3f8e0b52	1.1097205
51	0x3fd45f74	1.659163
52	0x3fcef6f6	1.6169116
53	0xbf52cf30	-0.82347393
54	0xbf8ed241	-1.1157914
55	0xbf584813	-0.84484977
56	0x3ff13a4d	1.8845917
57	0xbf3664c2	-0.71247494
58	0x3fbef196	1.4917476
59	0xbeace1ed	-0.33766118
60	0xbea5a3ed	-0.32351628
61	0x3e9c3372	0.30508
62	0xbe0992c1	-0.13434888
63	0xbe1c69a4	-0.15274674

l2.bias f4 [8]
0	0xbecbed13	-0.3982931
1	0x3d3bf5a0	0.045888543
2	0xbe757886	-0.23971757
3	0x3f460d90	0.77364445
4	0x3efadec3	0.4899808
5	0x3e17f077	0.14837824
6	0x3f16efab	0.58959454
7	0x3f800a07	1.000306

l3.weight f4 [18, 8]
0	0x3e5952ba	0.21222964
1	0x3e306b2e	0.17228386
2	0x3d8028fa	0.06257816
3	0xbd63a805	-0.055580158
4	0xbe78ff2b	-0.24316089
5	0xbf2a3b97	-0.66497177
6	0xbe84087c	-0.25787723
7	0xbd87c3b3	-0.066291235
8	0xbf90672c	-1.1281486
9	0xbfb756a7	-1.4323319
10	0x3f3f88aa	0.7481791
11	0xbe86055b	-0.2617596
12	0x3f7cf4bb	0.9881093
13	0x3e093ad9	0.13401355
14	0xbfbb5d37	-1.4637822
15	0xbfc6b425	-1.5523726
16	0x3d179aff	0.03701305
17	0xbe2126f7	-0.1573752
18	0x3ecf9068	0.4053986
19	0xbfc4d6dc	-1.537807
20	0xbf9b6780	-1.2140961
21	0x3e97b869	0.2963288
22	0xbf0f4805	-0.5596927
23	0x3f223a2c	0.63370013
24	0xbec3e454	-0.38260138
25	0xbe939cc2	-0.28830534
26	0xbcb3663e	-0.021899339
27	0xbf723f75	-0.9462808
28	0xbe455a21	-0.19272663
29	0xbea2cda6	-0.31797522
30	0x3ecacf06	0.3961107
31	0x3ddda823	0.10823085
32	0xbfc888d2	-1.5666754
33	0xbfdcaa06	-1.7239387
34	0x3e96d1ba	0.29456884
35	0xbfa16d04	-1.2611394
36	0xbf8d5b82	-1.1043551
37	0xbe73bb86	-0.23802003
38	0x3f12dd10	0.57368565
39	0x3f49212c	0.7856624
40	0x3e036696	0.12832102
41	0x3c98ec1f	0.018667279
42	0x3ee85ba7	0.45382425
43	0xbe5c8f8c	-0.21539134
44	0xbef25ccd	-0.47336426
45	0x3e891daf	0.2678046
46	0xbff30753	-1.898661
47	0xbc3fec6c	-0.011714082
48	0x3e683383	0.226759
49	0xbe9869b1	-0.29768136
50	0xbf9c4892	-1.2209647
51	0x3ebbac72	0.36655003
52	0xbfe2f577	-1.773116
53	0xbf48be7a	-0.78415644
54	0x3f22f94d	0.6366165
55	0x3e688ed3	0.22710733
56	0x3f5ee4ef	0.87068075
57	0x3f4595aa	0.77181494
58	0x3ea0bb65	0.3139297
59	0xbf7a1d3d	-0.97700864
60	0xbf4fbf1d	-0.8115099
61	0xbfeb3b15	-1.8377405
62	0xbf6580a7	-0.8964943
63	0xbf15f063	-0.58569926
64	0xbfe8b69f	-1.8180732
65	0xbf814a89	-1.0100871
66	0xbff38d13	-1.9027427
67	0x3eae4b79	0.34041956
68	0x3e530100	0.2060585
69	0xc01b280c	-2.4243193
70	0x3f7341dd	0.95022374
71	0x3eb7de65	0.3591186
72	0xbf9b64fe	-1.2140195
73	0x3e8c71a4	0.2743045
74	0xbf967e98	-1.1757383
75	0x3e8e5b30	0.27803946
76	0x3f66d281	0.90164953
77	0xbf69ab45	-0.9127696
78	0x3f1fa1bb	0.62356156
79	0xc000adc3	-2.0106056
80	0x3de00fc0	0.10940504
81	0x3e83b99b	0.25727543
82	0xbc52316b	-0.012829165
83	0x3ec53473	0.38516578
84	0x3e9b5e8e	0.30345577
85	0x3da37614	0.07981506
86	0xbfdbf017	-1.7182645
87	0xbfddd5dd	-1.7330891
88	0xbf481403	-0.78155535
89	0xbfd4a0bc	-1.6611552
90	0x3eac7d7a	0.3368948
91	0x3db9e1db	0.09076282
92	0xbf9c63a0	-1.2217903
93	0x3f413c55	0.75482684
94	0x3d708149	0.058717046
95	0x3cd886b1	0.026431413
96	0x3e65be28	0.2243582
97	0x3f023002	0.50854504
98	0xbe9dffd7	-0.30859253
99	0x3edc9aea	0.4308694
100	0x3e93ad66	0.2884323
101	0xbfef2ad5	-1.8684946
102	0xbe0bb5e4	-0.13643605
103	0xbff02e7e	-1.8764188
104	0xbef565c0	-0.47929192
105	0xbe8abd27	-0.27097437
106	0xbed9ef47	-0.42565367
107	0x3f763ed5	0.96189624
108	0xbee22d0f	-0.44175002
109	0x3e2c2f3d	0.16814895
110	0xbdabe44f	-0.08393156
111	0xbf410fee	-0.7541493
112	0xbfbcb1cb	-1.4741758
113	0xbfab30e3	-1.3374294
114	0x3e8564ba	0.2605341
115	0xc010ac75	-2.260526
116	0x3f0d6232	0.5522796
117	0x3ebf7dd2	0.3740068
118	0x3ec3d2fa	0.382469
119	0xbe893ba8	-0.26803327
120	0xbe3f0dc7	-0.186576
121	0x3ed8edf7	0.42369053
122	0x3f20df7d	0.62841016
123	0xbfc8089c	-1.5627627
124	0x3f043cbc	0.51655173
125	0xbf5e34e2	-0.8679944
126	0xbf5bba9d	-0.85831624
127	0xbf38b100	-0.7214508
128	0xc011a5de	-2.2757487
129	0xc007cdeb	-2.1219432
130	0xc01a3222	-2.4093099
131	0x3f71875f	0.94347185
132	0xbf6b0f62	-0.9182035
133	0x3f3941b7	0.723659
134	0x3d7d7d4c	0.06188707
135	0x3f4fc4e2	0.81159794
136	0x3f24e417	0.6441054
137	0x3f4304d6	0.76179254
138	0xbf9d9aa1	-1.2312814
139	0xbfd75a55	-1.6824442
140	0xbfe78a21	-1.8089029
141	0xc02d1d8b	-2.7049282
142	0xbd66ba97	-0.05633029
143	0x3f3d4468	0.73932505

l3.bias f4 [18]
0	0xbea3cd68	-0.3199265
1	0x3d0bcc74	0.03413053
2	0xbe3fcafc	-0.18729776
3	0xbebf751c	-0.37394035
4	0x3e9fc3bf	0.3120403
5	0xbe13a100	-0.14416885
6	0xbe24cf76	-0.16094765
7	0x3dda7e17	0.10668581
8	0x3f040df2	0.5158378
9	0x3d27bc60	0.040951133
10	0x3d51bf74	0.051207975
11	0xbe8a5047	-0.27014372
12	0xbe884047	-0.2661154
13	0x3cb5fb64	0.022214599
14	0x3e9d7918	0.3075645
15	0x3d9b951a	0.07596798
16	0x3e8eb209	0.27870205
17	0x3f208694	0.6270535
