data.pth (torch, 6890 bytes, 6 tensors)

l1.weight f4 [8, 81]
00000000: 44d7 583e 0510 dd3e ac87 183f 3cf6 02bc
00000010: fda0 143f ed34 ee3e 81aa 1e3f 9a05 6ebe
00000020: 21b3 683f 06a6 ae3d 5077 ebbc 91ed f83e
00000030: ae62 b2be 012b 4f3f 876d 333f e543 7fbe
00000040: a0a1 b0bd ec77 c9be 2af2 143f f709 143f
00000050: 3cba 2f3f 0eb0 373f 8ff7 ba3e e2e4 553d
00000060: cde8 dfbe b997 183f ecc6 9cbe 8d2e b63e
00000070: d56e b43e a82e 3f3f 6467 5abd ac35 6e3c
00000080: 578c 9c3f 779b 2f3f ec60 9c3f ce8f 803e
00000090: 3624 ae3e b74f 24bf 173f 5b3f 11cc 6c3f
000000a0: f5a5 903e 8249 183f ef8c 473e 5f95 93be
000000b0: 6e39 7fbe 7d4f 283d 7e9f 963f c75c 3dbe
000000c0: 20dc 4a3e 3585 483f 77c3 ba3e d093 bb3e
000000d0: 3683 0bbe 2285 3e3f 2da1 f23e 5cc5 f53e
000000e0: e20e 2b3f fbea 6a3e f3e2 0bbf 8395 8b3e
000000f0: 3d35 2e3f f356 a5be 2cb7 b6be cfb3 563f
00000100: 734b eebc a4b3 b23c eb91 ea3e 32c6 c33e
00000110: 7229 7c3f e458 8a3e e91b 153f e77f 293f
00000120: de30 b33e 7a7a 863f 1c05 1bbe 4f63 2f3f
00000130: 1982 f23e 9a09 acbe c778 9bbe c011 e83e
00000140: af39 d43e f046 31bf cbdd 693e 8aae dbbd
00000150: d2bc c2be 629a 593e caea 9f3e 6c6b 043f
00000160: 7588 113f 9df3 273f 6730 073f 3a61 343d
00000170: 40fb fa3d 737f aa3e 9edb f6bd deef cc3d
00000180: 3906 cb3e 1b2c eebd 9dad f8bd 4b38 fe3e
00000190: e721 843d c2f4 3abc a998 0d3f 82e5 4a3d
000001a0: 0dab 783e ce86 54bd 0d3e 0d3f 48f7 a5be
000001b0: 4824 903e c9d0 90be 3a81 1e3f c4ad 51bd
000001c0: 24b7 3a3e 66ce 5f3f 9914 9b3e b715 473f
000001d0: 9c5b 053f 005d 1d3f 735c 21bf 8809 dc3e
000001e0: 2835 063f 5940 f33e 22b2 823d 6b8b 813e
000001f0: b234 60bd 431c dd3e 6049 c0be 265b 263f
00000200: 661e adbd dc49 9fbe f22c 873e e719 673e
00000210: c8f1 ef3e fded 9ebe 30eb 95bd 1f81 1f3f
00000220: 7cce cc3e e775 e23e c984 9f3e 11d3 4bbf
00000230: f0f3 c63e 38c0 2a3e c7a7 01bf 51e6 dc3e
00000240: e374 283e a3a8 8c3e a45f 8abd 1fb5 33be
00000250: b3e7 773e ea72 70bf e8aa f3be 3116 da3e
00000260: 9ce8 cc3e 77b0 36be b4c1 4d3f 2afa e4bb
00000270: ba4d a63e 34bc 74be 2ac9 7ebd 5a66 3dbe
00000280: 8ca9 df3e 62ef 133e c923 643f 1c47 ea3e
00000290: 2a56 4cbe 4e77 12bf ac82 63be 04bb 603e
000002a0: 747a 88be fde9 893e 74a3 7abe 8452 193f
000002b0: 9435 babd 2ef8 42be 5acf 45be f143 a63e
000002c0: 691c 8fbd 97f8 463f 3bc1 843f af31 b5bd
000002d0: 84ed 8f3d bdd7 ea3d 6824 9bbe bcdd a7bd
000002e0: 38a6 bbbe 58cb c03d 703e bebd e3ae bb3d
000002f0: befe 24bd d747 b83e 5949 a03e 0899 e1bd
00000300: 77b1 8b3d 044d 243e 7290 44be 4ccd 593e
00000310: bd0b 45be c92c efbc 3bac c43e 2c61 a53e
00000320: e1da 433f 7a8f 233f 8408 1f3f 7ffb f0bd
00000330: 4424 743e 8946 41be 0f85 b6be 5658 22bd
00000340: a677 8b3f 159c 24bd b210 0b3f 7318 03be
00000350: 88df 673c 1add 293f f330 1b3f 0fe2 763e
00000360: a4ae f5be 55fc c93e 8d51 313f f8cf 063e
00000370: 60c2 4ebe c473 9f3e c1a3 a8be dd2c cabd
00000380: 2eb3 1ebe 9c4a b4bd 97df 083e aa6d 3abd
00000390: d15f dd3d 0625 2cbc 21d1 b33f 770b 5b3f
000003a0: bd26 833e 042e c6be fd96 863e fddd 9e3e
000003b0: 5720 a73d f477 c1be a03e 663e 022e 3d3c
000003c0: 5c17 aabe 7325 653f 5d78 d73e 8e17 1fbe
000003d0: 4b0d 393e 7b5a 4b3d 09a3 f13a 922b 563e
000003e0: 8dba 6e3e ec03 debe 6dd4 123f a827 e4be
000003f0: 6a8f 383f 60c5 443b 8b26 993d cf5d 363f
0.21175867 0.43176284 0.5958202 -0.007993277 0.5805815 0.46524754 0.6197892 -0.23244324
0.9089833 0.0852776 -0.028743416 0.4861875 -0.34840912 0.80924994 0.70089 -0.24928243
-0.086245775 -0.39349306 0.58182013 0.57827705 0.68643546 0.71753013 0.36516997 0.052220233
-0.437323 0.5960651 -0.30620515 0.3558239 0.35240808 0.74680567 -0.053321257 0.014539164
1.2230328 0.68596596 1.2217078 0.25109714 0.34012002 -0.64184135 0.8564314 0.9249888
0.28251615 0.59487164 0.19487356 -0.288249 -0.24924251 0.04109143 1.1767423 -0.18492423
0.19810534 0.7832826 0.36477253 0.3663621 -0.13624272 0.74421895 0.47388592 0.48002136
0.66819584 0.229412 -0.5464317 0.27262506 0.68049985 -0.322929 -0.35686624 0.83868116
-0.029088711 0.021814175 0.45814452 0.3823715 0.9850074 0.27020943 0.5824571 0.6621079
0.3499822 1.0506127 -0.15138668 0.6851091 0.47364882 -0.33601075 -0.30365583 0.45326042
0.4145026 -0.6924887 0.22838514 -0.1072665 -0.38034683 0.21250299 0.31233817 0.5172641
0.5684884 0.656061 0.5280823 0.044038035 0.122549534 0.3330036 -0.120536074 0.100066885
0.39653185 -0.11629506 -0.12142489 0.49652323 0.06451779 -0.011410894 0.55311066 0.049535282
0.24284 -0.051886372 0.55172807 -0.32415223 0.2815268 -0.2828429 0.61915934 -0.051191106
0.18233925 0.87424314 0.30289152 0.7776751 0.5209291 0.6147003 -0.6303169 0.42976022
0.5242486 0.4751003 0.063816324 0.2530168 -0.054737754 0.43185624 -0.3755598 0.6498283
-0.08453064 -0.31111038 0.26401478 0.22568475 0.46864152 -0.31040946 -0.07320249 0.623064
0.40001285 0.44230577 0.31155995 -0.79618937 0.38857985 0.16674888 -0.5064663 0.43144467
0.16450839 0.2747241 -0.06756523 -0.17549561 0.2420948 -0.93925345 -0.4759133 0.42595056
0.40021217 -0.17840753 0.8037369 -0.0069878297 0.32481176 -0.23899919 -0.062203564 -0.18496075
0.43684042 0.14446786 0.89117104 0.45757377 -0.19954744 -0.57213295 -0.22217816 0.21946341
-0.26655924 0.2693633 -0.24476415 0.59891534 -0.090922505 -0.19039986 -0.1931738 0.3247371
-0.06987841 0.7772307 1.0371469 -0.08847367 0.070277244 0.1146693 -0.30301213 -0.08196589
-0.36650252 0.09413785 -0.09289253 0.09164216 -0.040282004 0.3599231 0.3130596 -0.110155165
0.06820958 0.16045004 -0.19195727 0.21269721 -0.19242759 -0.02919616 0.3841265 0.323007
0.7650586 0.638908 0.6212237 -0.11766719 0.23841959 -0.18874563 -0.3564839 -0.039635025
1.0895889 -0.040187914 0.5432235 -0.12802295 0.014152415 0.66353 0.60621566 0.24109672
-0.47984803 0.39450327 0.6926506 0.13165271 -0.20191336 0.3114301 -0.32937434 -0.09871838
-0.15498039 -0.08803293 0.13366543 -0.04551474 0.10809291 -0.010506874 1.4048196 0.8556437
0.25615492 -0.38706982 0.2628707 0.3102874 0.08160465 -0.3778683 0.22484827 0.011546614
-0.33220947 0.8951027 0.42084017 -0.15536329 0.18071477 0.049646836 0.0018435429 0.20915058
0.23313351 -0.43362367 0.57355386 -0.44561505 0.7209383 0.0030024871 0.074780546 0.7123689

l1.bias f4 [8]
00000000: d07c 103e 3706 763f 480b b53d ca3f 063f
00000010: 40c4 7a3e 8aec 9e3f ee33 b43e 7601 5f3f
0.14110112 0.96103233 0.08840042 0.52441084 0.24488926 1.2415936 0.3519587 0.87111604

l2.weight f4 [8, 8]
00000000: 62cd 333f 2620 8dbf 1a2a bf3f 4a80 73bf
00000010: 20aa c93f 4ed0 413f 063e 2e3f 3d1b 073f
00000020: f450 50be 5734 3bbe 501c 3c3d 5092 e73c
00000030: 248e c33d 6f33 52be a034 b7bd 96a2 38be
00000040: 785c 0e3f 4971 303f 6f8b c2bf 5460 02bf
00000050: 0006 843f 1c43 6b3f 427d 20bf 179f a53f
00000060: 45b9 4dbf 03bd 613e 9b42 90be 356b bc3f
00000070: 0458 81bf 66db 7f3f cbf9 973f d4c2 6b3f
00000080: d2fc a03f 739b b53f e91e 8e3f b4b7 b3be
00000090: a6d8 05be 14dd 8b3f 511b 3bbf ac60 edbd
000000a0: 9b64 c5be c744 f2bd 31ee c63d d7c9 3f3d
000000b0: 6cf5 a63e 0e89 b6be 21a5 33be 7c6e 273c
000000c0: 7ac7 a6be 9e44 9d3f f1f9 9e3e 293d febe
000000d0: 0a20 4abf 76dc 64bf ef69 743f bbed 9e3f
000000e0: 671b b83f 8635 843f 730e 7f3e fbea dc3e
000000f0: 27ed 163e f181 aebf aa8f a83e adbc 593f
0.70235264 -1.1025436 1.4934723 -0.9511763 1.5755043 0.7570847 0.6806339 0.5277594
-0.20343381 -0.18281685 0.04592544 0.02826801 0.095485955 -0.20527433 -0.08945584 -0.18030772
0.55609846 0.6892286 -1.5198802 -0.50928235 1.0314331 0.91899276 -0.6269113 1.2939175
-0.80360824 0.22044758 -0.28175816 1.4720217 -1.0104985 0.9994415 1.1873106 0.9209416
1.2577155 1.4188064 1.1103183 -0.35101092 -0.13070926 1.0926843 -0.73088557 -0.11590704
-0.38553318 -0.118295245 0.097134 0.04682335 0.32609117 -0.3565144 -0.1754346 0.010219213
-0.32574064 1.2286565 0.31050065 -0.49656036 -0.7895514 -0.89398897 0.9547414 1.24163
1.4383363 1.0328834 0.24907856 0.43148026 0.14738904 -1.3633405 0.32922107 0.8505352

l2.bias f4 [8]
00000000: 2415 a33d 68a7 0bbe 7bef 853f aecc 1a3f
00000010: bd6d 063f 7fbb 11bd 3b08 3d3f 70d0 24bf
0.07963017 -0.13638079 1.0463709 0.60468566 0.525112 -0.0355792 0.73840684 -0.6438055

l3.weight f4 [12, 8]
00000000: 1936 573e b74d 74be 00a8 363f fce1 81be
00000010: 49e4 a1bd 18eb e9bd 1442 bebf 8380 39bf
00000020: f8ad 953e 4818 433d 8aba a1bf e1c9 56be
00000030: 6c3d 153f f6b2 e7bd 2088 a6bd d40b adbe
00000040: 4c53 4fbf 254f 84be 719f f4bd 619e 96bd
00000050: 3cef 813e c450 19be 3905 9fbf b498 103f
00000060: 7ec7 c73e a81a 70be 7a5e 5bbf 1099 60bf
00000070: cf3a 06be bc78 863e bc73 223e 935f 0f3f
00000080: 6ede 02bc a0c3 cf3c ffce 8ebf 59b8 723f
00000090: 2175 d7be fdf9 8bbd c0f5 7bbf 192b 3cbf
000000a0: eda7 36bf 3e41 92be ddfd 76bf ce5a ea3e
000000b0: 53e5 aabf d90b 3b3e 8fa3 393f b389 ec3e
000000c0: 2620 193f 6633 61be b139 913d 2ee5 ae3d
000000d0: 8f4b 85bf 0ecd 93be 56b2 863e e337 b2be
000000e0: 882f 41bf 25d1 813e 473a 403f a70f ec3e
000000f0: f61b 9c3e 7c07 0e3e f950 2e3e 026b e6bf
00000100: 1f4d 82bf d03a 72be 9f79 f53e 4527 5fbf
00000110: 3eb8 123d 0f96 313e 6c27 213f 3c86 dc3e
00000120: d3f9 eabe 084e 0a3e e0bf acbf 86e9 edbc
00000130: ae71 f53d 932e 863e 5cda e73e 3189 db3e
00000140: cc44 7f3f c21f 43be 4f1e 283e 8e8a b6bf
00000150: bebc ba3e ffcc 7fbb 5642 92bf 257b 05c0
00000160: 2901 8f3e 68b1 a9bd d25a 18be 2a2f 95bf
00000170: 3b84 ce3e 9b63 1f3d 42af 9bbf 10bb 7b3e
0.2101673 -0.23857771 0.713501 -0.25367725 -0.0790487 -0.11421794 -1.4863915 -0.7246172
0.2923429 0.04763058 -1.2635052 -0.20975448 0.5829685 -0.11313431 -0.081314325 -0.33798087
-0.80986476 -0.25841632 -0.119444735 -0.07354427 0.25377834 -0.14972216 -1.2423469 0.56483006
0.39019388 -0.23447669 -0.85691035 -0.87733555 -0.13108371 0.26263988 0.15864462 0.5600521
-0.007987602 0.025361836 -1.115692 0.9481254 -0.4208155 -0.06834791 -0.9842186 -0.7350326
-0.71349984 -0.285654 -0.96481115 0.45772403 -1.3351234 0.18266238 0.72515196 0.46198806
0.5981468 -0.21992263 0.07091082 0.08539806 -1.0413684 -0.28867382 0.26307935 -0.34808263
-0.7546315 0.25354877 0.75088924 0.46105692 0.30490083 0.13870043 0.17023076 -1.8001406
-1.0179785 -0.23655248 0.47944352 -0.87169296 0.03582024 0.17342399 0.6295078 0.43071163
-0.45893726 0.13506329 -1.3496056 -0.029042017 0.11984573 0.26207408 0.45283782 0.42878106
0.9971435 -0.19055083 0.16417812 -1.4261034 0.36472124 -0.00390321 -1.1426494 -2.0856411
0.27930573 -0.08285791 -0.14878395 -1.1655018 0.4033526 0.03891335 -1.216286 0.24583077

l3.bias f4 [12]
00000000: fa03 0ebf b192 d43d 6dd2 91be a453 53be
00000010: 21ad 353f a5a6 b2be 492f 32be fdb0 f93d
00000020: 9e9f 763e ddb1 20bf 38d3 0f3f 2664 00bf
-0.5547482 0.10379542 -0.28480855 -0.20637375 0.709673 -0.34892765 -0.1740085 0.12191961
0.24084327 -0.627714 0.5618167 -0.50152814
