data.pth (torch, 8426 bytes, 6 tensors)

l1.weight f4 [8, 105]
000000 4e 84 7a 39 72 96 50 3e e2 8e 74 3f 44 87 ac 3f
       0.00023891145 0.2036989 0.9553052 1.347878
000010 94 a6 66 bf ec fb 80 39 6c 40 ef 3b 67 fe 4f 3f
       -0.9009793 0.0002460176 0.007301381 0.8124756
000020 27 9d e4 be ae f2 25 bf bc 74 57 3f 72 fa b8 bd
       -0.44651148 -0.64823425 0.841625 -0.09032144
000030 2f 41 1d 3f cd 55 ca 3e b2 68 b4 bd 14 0f 4f 3f
       0.6142759 0.39518586 -0.088090315 0.8088238
000040 cb 4d 46 3f ed 18 67 3f 48 73 8e 3d da 3d c5 3e
       0.7746245 0.9027241 0.06955582 0.38523751
000050 f4 1b 69 bb d8 60 70 3e d6 1b 9e 3e 1e d8 87 3f
       -0.003556964 0.23474443 0.30880612 1.0612829
000060 4b 70 46 bf 0f ce ff 3d 70 37 c9 3e 2d 2a a5 3c
       -0.77515095 0.124904744 0.39300108 0.020161713
000070 74 2d cf 3c ad c3 06 bf b4 ca 75 be fe 29 f1 be
       0.025290228 -0.5264233 -0.24003106 -0.4710235
000080 ee db c1 be 35 4f 04 3f 14 97 fd 3c cc 45 83 3e
       -0.37863106 0.5168336 0.030955829 0.25639188
000090 7d 97 b5 ba 15 51 1e bf 38 84 47 3f 3d 3e 1c bf
       -0.0013854351 -0.6184247 0.77936125 -0.6103247
0000a0 0a 49 5c 3f 88 6f 3d 3e d0 99 21 3f d3 51 3c bf
       0.8604895 0.18499577 0.63125324 -0.73562354
0000b0 c9 f9 16 bf 47 07 57 3f 8c 5a 43 3f 30 6c 23 3f
       -0.5897489 0.8399548 0.7631004 0.63836956
0000c0 10 a0 bd be d7 0b c3 3e c3 25 32 3e 96 0a dc be
       -0.3703618 0.3809497 0.17397217 -0.42976826
0000d0 34 8d 05 3f 96 41 27 be 11 56 da 3d e1 e6 8e 3f
       0.52168584 -0.16333613 0.10660947 1.1164209
0000e0 74 91 a5 be 6a b2 a6 3e d7 69 ec 3e 5e 90 96 bd
       -0.32337534 0.32557994 0.461745 -0.073517546
0000f0 2b 06 3e 3f ab 9b f9 3e 3e d0 2a 3e 86 cc 5b 3f
       0.7422816 0.48751578 0.16681 0.85858953
000100 fd a0 75 be 94 c6 99 3f ae dc 7f 3f ab c9 17 3f
       -0.23987193 1.2013726 0.99946105 0.59292096
000110 0d cc 35 bd 2c b8 45 3f 42 b3 a8 be 53 b9 a5 3f
       -0.04438405 0.7723415 -0.32949263 1.2947181
000120 8b a1 78 bd 2d ea bf 3e 7a 4d b2 bd c2 ea ce be
       -0.060700934 0.3748335 -0.08706184 -0.4041348
000130 f8 f3 b7 3e 7e 80 4a 3f 3b 23 83 bd 83 36 ff 3e
       0.3592832 0.79102314 -0.06403204 0.49846277
000140 24 88 51 3f 55 f9 9e 3d 01 44 a8 bd c4 cc 96 3f
       0.8184836 0.077624 -0.08216096 1.178124
000150 ab d0 e8 bc cb 5e 84 3f b0 aa 81 bd c7 ad 83 3e
       -0.028419813 1.0341429 -0.06331384 0.2571852
000160 49 c9 66 bf 37 87 d4 3d fb 9a cd 3e 48 67 5b bd
       -0.90150887 0.10377353 0.40157303 -0.053565294
000170 27 d2 bf be f6 df 04 3f ff 20 10 bf 08 59 dc be
       -0.3746502 0.5190424 -0.5630035 -0.43036675
000180 d6 af e1 3e 38 85 1e be cb e2 0a 3f ae 40 cb be
       0.44079465 -0.15480506 0.5425231 -0.39697784
000190 57 16 f7 3e c1 12 56 3f 19 57 df be 15 ef 90 3f
       0.4825923 0.83622366 -0.43621138 1.1322962
0001a0 ef 34 8c 3d dc d6 90 3e 9d d2 a1 3d 0e cc cb 3e
       0.06846034 0.28288925 0.079014994 0.3980412
0001b0 01 94 5e 3f 33 80 7b 3f 8c 74 45 bd 0f 5f d7 bd
       0.86944586 0.9824249 -0.04820685 -0.10516178
0001c0 31 27 41 3f 57 a2 4d 3e fc d7 fe 3e 35 4f 26 3f
       0.75450426 0.20081459 0.49774158 0.6496461
0001d0 78 43 da bc 51 c3 59 bf c7 81 f7 bc 26 37 67 3f
       -0.0266435 -0.85063654 -0.03021325 0.90318525
0001e0 30 23 80 be af db 44 be f8 6c f1 3e 63 d8 7f 3f
       -0.25026846 -0.19224428 0.4715345 0.99939555
0001f0 8b cc f2 be e6 2e 2b 3f 81 44 aa be 2c 16 68 be
       -0.4742168 0.66868436 -0.3325539 -0.22664708
000200 be 0b f9 3e a2 3d 4d 3d 44 32 37 3f bd f7 b7 be
       0.4864177 0.050107606 0.71561074 -0.35931197
000210 6e 81 03 bf 59 dd 1c bd 48 ed 1c 3f c6 7e f4 3e
       -0.5136937 -0.03829703 0.6129956 0.4775297
000220 ef 34 a9 3e 6e ad a8 be 4c 87 f1 bd f8 86 24 bd
       0.33048198 -0.32944816 -0.11793384 -0.04016778
000230 2c f1 00 3e 32 b5 cd 3d b8 27 ee 3d a6 59 4f bf
       0.12592 0.10044326 0.116286695 -0.8099617
000240 2a ea bd 3d 11 0e 2c bf ce 93 02 3e 65 3c 94 3e
       0.09273179 -0.67208964 0.12751696 0.28952327
000250 95 c2 4a 3e db 84 d7 be b4 f6 a8 3e d0 e7 ef be
       0.1980079 -0.42093548 0.3300072 -0.46856546
000260 3a f0 59 3f cb 8f b6 3e 0b cc b9 bd a9 8d 63 3e
       0.8513218 0.3565658 -0.09072121 0.22222008
000270 56 5c 02 3f e0 d6 0d bf 1b 0b 2f 3f e8 95 0d be
       0.50922143 -0.55406 0.6837632 -0.13826716
000280 cc 7d 48 3d 60 f1 7f 3e 3d c4 90 be 96 5c cf 3d
       0.048948094 0.24994421 -0.28274718 0.10125081
000290 b9 f5 17 3d 07 c6 fa 3e 04 4b 10 3c 7b 22 e2 3d
       0.037099574 0.48979208 0.008806948 0.11041733
0002a0 82 9e 9d be 74 8a 26 3d 63 73 44 3f ee f6 55 3f
       -0.30784994 0.040659383 0.76738566 0.8357991
0002b0 8f 2b 1f 3f 54 64 93 bd fd 0e 10 bf d8 ff 89 be
       0.6217584 -0.071968704 -0.5627287 -0.26953006
0002c0 cb e1 63 3f 13 fb 97 3d 97 e4 18 3d 11 f5 ab 3d
       0.8901641 0.074209355 0.037327375 0.08396352
0002d0 79 fa 36 3f a0 7b eb be 77 75 a9 be 6c ac 48 3f
       0.7147594 -0.45992756 -0.3309743 0.78388095
0002e0 37 4b 13 3f b1 f9 b9 be dc 0a 1b 3f 4f 5f bd 3d
       0.57536644 -0.36323312 0.60563445 0.09246694
0002f0 46 70 ad 3d f1 41 36 3e 77 0b 97 bf 8e 2b 13 3f
       0.0846868 0.17798592 -1.1800374 0.57488334
000300 03 56 5a 3e 46 52 94 bf 31 d2 0b bf ae 2c aa be
       0.21321873 -1.1587608 -0.546176 -0.33237213
000310 4b fe 37 bd 76 e3 6f 3e f3 56 f5 3e b7 54 4f 3f
       -0.044920247 0.23426613 0.479179 0.8098864
000320 33 32 fc 3e b3 24 0b be 18 46 99 be 00 c7 0d bf
       0.4925705 -0.13588218 -0.2993629 -0.55381775
000330 8c eb 75 3e 4a 93 be bd f1 07 02 bf 54 cd f5 3e
       0.24015635 -0.09305437 -0.5079337 0.48008215
000340 dd 52 45 3f fd 4d 16 bc 95 ce 2e be bd 94 3e be
       0.77079564 -0.009173867 -0.17070992 -0.18611427
000350 9b 40 06 bd a4 0b 32 3f 96 1d 90 3f 92 3f 4a 3d
       -0.032776456 0.6954901 1.1259029 0.04937703
000360 64 00 26 bf df 43 51 3f dc 56 da 3e 1c 8e f7 be
       -0.64844346 0.8174419 0.42644393 -0.48350608
000370 a5 d3 5e 3f 38 0f 19 bd b2 31 73 3f af 10 ce 3d
       0.87041694 -0.03736803 0.94997704 0.10061776
000380 20 19 cb be 2b 16 03 3f 7c dd 6e 3f de 55 30 3f
       -0.39667606 0.512057 0.9330671 0.6888102
000390 a5 b9 80 be 93 1e 6f 3f 47 eb 95 be 7d 35 f8 bd
       -0.25141636 0.9340603 -0.29281065 -0.12119577
0003a0 4f 7d 2a 3f 8b 09 2c 3f 6e 47 30 bf 28 29 85 be
       0.66597456 0.6720206 -0.68858993 -0.26007962
0003b0 a5 29 95 bc b4 a9 d5 be c8 e6 18 3c 04 13 14 3e
       -0.018208334 -0.41731036 0.009332366 0.14460379
0003c0 78 15 29 be be d8 00 be ef 8a 0a bf 32 2f 2a 3e
       -0.16512096 -0.1258268 -0.54118246 0.16619566
0003d0 f5 70 c5 3d d0 4f ec 3d 08 f1 9d bd 97 4b ca be
       0.096406855 0.115386605 -0.07711989 -0.39510795
0003e0 c4 c3 9c 3f 0d 9d c9 be 6f 01 9c 3f 97 ec b3 3e
       1.2247243 -0.39377633 1.2187937 0.3514144
0003f0 f6 15 54 3f ed 7d 66 3f a5 32 63 bf f2 89 46 3e
       0.8284601 0.900359 -0.8874915 0.1938856

l1.bias f4 [8]
000000 47 cb 66 3f 23 0c 97 3f 3b a4 73 3e 7d 2e 96 3f
       0.90153927 1.1800579 0.23793118 1.1732937
000010 0d 60 40 3f bf 6d 98 3f 07 07 a3 3f df c3 8b 3f
       0.7514656 1.1908492 1.273652 1.091915

l2.weight f4 [8, 8]
000000 46 9e 40 bf 2e 27 83 3e 8a 86 16 3f 5d e4 86 be
       -0.75241506 0.2561583 0.5879904 -0.26346102
000010 3a 59 87 3e c1 45 29 3e bf 88 9e be 4a 2a 36 3d
       0.26435262 0.16530515 -0.30963704 0.044473924
000020 60 e9 b1 3f ab b6 16 3f 70 ee 96 3f 6a 8b d3 3f
       1.3899345 0.5887248 1.1791515 1.6526921
000030 b8 0e e0 3f 31 5d 5e bf 33 e0 24 3c 52 2c 0f bf
       1.7504492 -0.8686095 0.010063219 -0.55927
000040 09 f6 bc 3f 30 25 ab 3e 5b 65 e7 3f 2f 4b ed 3e
       1.4762584 0.3342681 1.8077806 0.46346423
000050 ab 5c 47 bf 69 a9 07 40 d5 db 26 bf 29 7e d8 be
       -0.77875775 2.119715 -0.6517919 -0.42283753
000060 61 9a 51 3f 4a 70 8d bf e7 2e 15 bf 90 5b 98 3f
       0.8187619 -1.1049893 -0.5827469 1.1902943
000070 f6 a1 bf be 71 5b b0 3e db 84 1b 40 ab c2 00 be
       -0.37428254 0.34444764 2.4299839 -0.1257426
000080 ba d9 98 bf 2d ea c3 3f 15 dc ae be 4e 8c 57 3d
       -1.1941445 1.530584 -0.34152284 0.05262404
000090 f4 7d d9 3f 50 e5 ea bb 4f 50 96 3f ec ee 06 40
       1.6991563 -0.0071684495 1.1743258 2.1083326
0000a0 ee 4d 01 3f c7 a1 92 be 2b a1 c5 3f e8 9a c3 bf
       0.50509536 -0.2863905 1.543981 -1.5281649
0000b0 5d 2a 8e 3d 26 fc d1 3e 45 18 8e 3f 9b 02 87 3f
       0.06941674 0.41012686 1.1101156 1.054767
0000c0 fd eb 65 3f 91 a6 02 40 af 03 3f bf da 99 79 3d
       0.89813215 2.0414164 -0.74614996 0.06093774
0000d0 ed ac 1a bf 44 0b f7 3e d7 97 48 be 87 37 e8 3f
       -0.60420114 0.48250782 -0.19589172 1.8141946
0000e0 7e b8 2a be 70 ac ad be d0 d2 89 bd 7c 73 84 be
       -0.1667194 -0.33920622 -0.067296624 -0.25869358
0000f0 09 dc 9b be 52 7e 3d be 74 1c be 3d 92 7b b2 be
       -0.3044131 -0.18505219 0.09282771 -0.34859902

l2.bias f4 [8]
000000 67 54 80 3e 02 5f 37 bf 88 ce 37 3f dc 5c a6 3f
       0.25064394 -0.71629345 0.71799517 1.2997088
000010 e4 5b 4f 3f 0d 8f 08 bf 13 9f 82 bd 30 37 a6 bd
       0.8099959 -0.5334328 -0.06377997 -0.08115995

l3.weight f4 [19, 8]
000000 24 bb e6 be 8d c1 35 3e 1d 71 fe bd 5e 8d 2b bf
       -0.45064652 0.17749615 -0.124239184 -0.67012584
000010 9e 47 c0 bc 2c c1 e1 bf 43 07 9b 3e 80 17 bf 3c
       -0.02347165 -1.7637076 0.30278978 0.023326635
000020 d5 6d 71 bf 80 b2 79 bf d6 81 f2 3e a0 66 c4 3e
       -0.94308215 -0.97537994 0.47364682 0.38359547
000030 4c 87 fd bf 0a 6b 4f 3f 49 86 58 bf af b6 a6 be
       -1.9806914 0.81022704 -0.845799 -0.32561252
000040 ce a9 52 3f e8 25 0c 3e 97 7b ed be 0f 96 b3 bf
       0.8229035 0.13686335 -0.46383354 -1.4030169
000050 e9 6d 33 3f eb 39 2a bd 0f 8d ca bf c8 4e 41 bd
       0.70089585 -0.04155914 -1.5824298 -0.047194272
000060 eb 48 45 bf 8e c9 77 3e 04 61 f1 bf cc a3 95 3d
       -0.7706439 0.24197981 -1.8857732 0.073066324
000070 4c d6 3c 3e de 5e 2d bf 43 dc 0a be 07 02 ae 3e
       0.18441123 -0.6772288 -0.13560586 0.33985922
000080 9a 86 44 bf 98 ab 5b 3b e5 dc 38 3f 7d 95 69 be
       -0.76767886 0.0033519026 0.7221206 -0.22810932
000090 a2 5e da bf b5 f5 91 bf fa 24 50 3d c6 78 9d be
       -1.706013 -1.1403109 0.050816514 -0.30756205
0000a0 d3 ac 59 bf f5 2a 3b bd 13 cc 90 bf 37 0f 77 3e
       -0.85029334 -0.045695264 -1.1312279 0.24126898
0000b0 2d f2 19 be 87 65 da 3d e7 13 12 3e 54 86 e8 bd
       -0.15033789 0.10663896 0.14265405 -0.11353746
0000c0 f2 32 56 3f 54 e2 17 c0 9f 93 38 3d 44 25 e3 bf
       0.83671486 -2.373189 0.045062657 -1.7745748
0000d0 1a 89 1a 3f b6 b8 20 3f 8d 33 98 3e 00 9d 5d bc
       0.6036545 0.62781847 0.2972683 -0.013526201
0000e0 2a 9b 19 bf f0 6d 2d bf 55 80 b8 3e f2 b4 b7 bf
       -0.60002387 -0.67745876 0.3603541 -1.4352095
0000f0 c2 7c a6 be ae e9 5c bd e7 9e 1d 3f 40 eb c1 3c
       -0.32517058 -0.05393379 0.6157059 0.023671746
000100 10 6f d0 be ac 8d b8 bf 8b c6 23 3d 93 e9 a5 3e
       -0.40709734 -1.4418235 0.039984267 0.32404765
000110 ad de c2 bd be b4 1e 3f 76 63 74 be 7e 8d 1e 3e
       -0.09515128 0.6199454 -0.23866066 0.15483662
000120 bd 83 05 be d2 f6 69 3e 66 af 9c 3e 89 64 9c be
       -0.13038535 0.2284806 0.30602568 -0.30545452
000130 48 ee 25 bf e7 5d b9 3e cc 5f 2c c0 36 d6 39 3e
       -0.64816713 0.36204454 -2.693347 0.18148121
000140 d7 30 7b 3d d6 fe 0b c0 18 64 23 3f 06 12 5f be
       0.061325874 -2.187429 0.63824606 -0.21784219
000150 3b 49 d9 bf 77 9d 28 3e af 5e 22 3f 44 c5 9a bd
       -1.6975473 0.16466318 0.63425726 -0.07557157
000160 b7 2b 93 bd f2 75 2d bf 28 7e ce bf 63 c2 b7 bf
       -0.07186072 -0.67758095 -1.613225 -1.4356197
000170 1e fe 48 3f 4f 8e b0 be fa b8 25 3f e5 e3 82 3e
       0.7851275 -0.34483573 0.64735377 0.25564495
000180 59 2f c3 bf cd 4b 31 3d e4 52 7c 3c 05 6e 8f be
       -1.5248824 0.04328518 0.015400622 -0.28013626
000190 85 3f 71 be 39 cd 24 be 6a 1b cd be 35 0b 2e be
       -0.23559387 -0.16093911 -0.40059978 -0.16996463
0001a0 4d 57 24 bd 60 f4 d3 bf 6a d1 92 bf ed cc 9a 3f
       -0.04012232 -1.6558952 -1.1470158 1.2093788
0001b0 33 b2 27 3f 2e c7 5a 3e ec 08 17 c0 a2 bb 4a 3e
       0.65506285 0.21365044 -2.3599195 0.19798139
0001c0 37 46 c9 be f7 9d 4a 3e 53 e4 a6 bf 21 2e 60 3f
       -0.39311382 0.19786821 -1.3038429 0.8757039
0001d0 58 5f 44 3e 7f e9 1c c0 9e 1b d4 bf af e8 a6 3e
       0.19176996 -2.4517515 -1.6570928 0.32599398
0001e0 c2 08 a3 bf fe 1b 44 3f 14 49 92 be 00 6d d5 3e
       -1.2737048 0.7660521 -0.2857138 0.41684723
0001f0 71 e5 79 bf 9f 6e 82 bf 98 31 b5 bf 74 68 a6 be
       -0.97615725 -1.0190009 -1.415576 -0.32501566
000200 92 71 a8 bf 20 9f 5a bf e7 a6 5c bd ea 32 c0 3e
       -1.3159659 -0.85399055 -0.053870108 0.37538844
000210 6b e9 03 3f c0 96 da bf 3d a2 1a 3f 70 7a 33 be
       0.5152804 -1.7077255 0.60403806 -0.17527175
000220 4c de 1d bf ee 8f 4e c0 02 e2 b0 bf 3d 8c e4 3e
       -0.61667323 -3.2275348 -1.3818972 0.44638243
000230 aa 3a 1b 3f 2e b4 57 3d d9 63 4d 3f 79 1c b4 3e
       0.6063639 0.052662067 0.8023048 0.35177973
000240 9d f0 76 3e f3 c8 c8 be 1a b6 f4 3e 48 d3 89 3f
       0.24115224 -0.39215812 0.47795182 1.0767603
000250 9e b2 8c bf a1 cd fb bf 01 50 73 bf b4 1b a6 bd
       -1.099201 -1.9672128 -0.9504395 -0.08110753

l3.bias f4 [19]
000000 22 3e f6 bd 75 2d d5 be a9 6a 8d 3e bd f8 23 bf
       -0.1202357 -0.41636243 0.27620438 -0.6405142
000010 00 5a 6d 3c ba 11 10 bf 1c 88 bc bd fd f6 b9 bd
       0.01448679 -0.5627705 -0.09205648 -0.090803124
000020 df 78 dc bd 91 92 2f be 74 58 2d 3d 24 2d 89 3e
       -0.10765242 -0.17145754 0.042320684 0.26792252
000030 15 22 49 bf 66 b9 37 3f 06 e5 0b be fa e5 ef be
       -0.7856763 0.7176727 -0.13661584 -0.46855146
000040 bb 38 32 3f 14 33 cc bd 18 bd 1d 3f
       0.69617814 -0.0997068 0.6161666
